best_pokemon_model.pth (torch, 423781 bytes, 30 tensors)

features.0.weight f4 [16, 3, 3, 3]
000000 57 c0 03 3e b9 14 b9 bd a0 74 b2 bd e9 5a 0a be
       0.1286634 -0.09037156 -0.08713651 -0.13511242
000010 ee 05 31 3d 0f eb 2f 3e ca a2 1c be 41 ee 15 3d
       0.043218546 0.17179511 -0.15296474 0.03660417
000020 eb 77 6d bd 52 40 d9 bd c7 08 c8 bd 90 45 11 3e
       -0.05797569 -0.10607971 -0.09767299 0.14186692
000030 3c d0 b9 3d db d6 e5 bd c4 50 c4 bd a8 07 bf 3c
       0.09072921 -0.11222621 -0.09585717 0.02331908
000040 6f 0f 82 3b d1 48 1d be 5e a1 4b bd 94 06 1b 3e
       0.003969125 -0.15359809 -0.04971444 0.15139228
000050 cc c5 d6 bd 18 cc 1d be 2c 7f bd 3d 61 82 10 3e
       -0.104869455 -0.15409887 0.09252772 0.14112236
000060 a7 7a c6 bd 60 0b 89 3c f9 3e 78 3d 5b 1e 84 bd
       -0.09691363 0.016729057 0.06060693 -0.06451102
000070 c6 19 f6 bc a8 ae 3a bd 2a a9 95 bd e7 4e 0e be
       -0.030041587 -0.04557672 -0.07307656 -0.13897286
000080 69 39 b3 bd c1 a3 5d bd 1f b6 41 3d 04 bd 0d be
       -0.087511845 -0.054111246 0.047292825 -0.13841635
000090 91 4e af bd a9 30 d7 bd 38 3b a4 3d 8b b5 0b 3d
       -0.08559907 -0.10507328 0.080191076 0.03410868
0000a0 ef ac 7a bd 06 4a af bd 3d 7d ca bd d8 9a 0e be
       -0.06120008 -0.08559041 -0.098871686 -0.13926256
0000b0 72 f6 34 3d 13 d8 83 3e 5a 9b 82 3e 3a 25 f0 3d
       0.04418034 0.2575079 0.2550915 0.117258504
0000c0 95 68 3a 3e 88 66 d0 3d ba 65 86 3e f4 02 3e 3e
       0.18203957 0.10175806 0.26249486 0.18555814
0000d0 e5 8d 4d 3e 38 fe 15 3e e6 a5 d0 3d f9 31 2e 3e
       0.2007366 0.14647758 0.101878926 0.1701125
0000e0 3c 54 03 be cb 3f b8 bd e6 b9 f5 bc cb 22 23 be
       -0.12825102 -0.089965425 -0.02999587 -0.15931241
0000f0 3a d4 04 bd 0d d5 b0 3d e3 5b ac bd 8a f8 85 bd
       -0.032428958 0.08634386 -0.084159635 -0.06541546
000100 c0 fe b8 bd b3 70 69 3d 8f 07 0a 3e 0c 80 85 3d
       -0.09032965 0.056992244 0.13479446 0.06518564
000110 a5 e5 09 3e c5 d8 b4 3c bf bd c1 bd 15 8f 20 be
       0.13466509 0.02207602 -0.09460019 -0.15679581
000120 8f 41 f2 bd 3c f5 f1 3d 37 b2 f6 3c 7a ed 37 bd
       -0.118289106 0.11814353 0.030114276 -0.04490421
000130 39 f4 b0 3d d7 08 40 bd 62 30 eb bd f8 4d e7 bd
       0.08640332 -0.04688343 -0.11483838 -0.11294168
000140 14 33 1d be 28 8f db bd ba 02 93 bd 74 d1 87 3d
       -0.15351516 -0.10720664 -0.071782544 0.06631747
000150 fc 7e b3 3c bb 4f 08 3e ab 87 9f bd b4 a9 e2 3c
       0.021911137 0.13311665 -0.077895485 0.027668811
000160 23 a2 fa 3d e4 22 07 bd e0 40 91 3d a5 7a 43 bc
       0.122379564 -0.03299226 0.07092452 -0.011931096
000170 ad 02 14 3e 6b c3 15 3e 50 53 b6 bd 25 a3 e9 bd
       0.14454146 0.14625327 -0.08902609 -0.114080705
000180 4f cd d5 3d df d6 10 bd 32 a1 03 3d c4 e5 d5 3c
       0.1043955 -0.035361167 0.03213615 0.026110537
000190 a8 6c 1a 3e 94 e1 4f 3e 65 74 a8 3d 32 e3 3f 3e
       0.15080512 0.20300895 0.082253255 0.18739012
0001a0 ae 72 23 bd 20 98 23 3d 1a aa e1 bc 9a 0d 16 3e
       -0.03990429 0.03994 -0.027546931 0.14653626
0001b0 a0 f0 7d 3e c1 2b 85 3e 53 c0 9a 3c 9d d7 47 3e
       0.24798822 0.26009944 0.018890535 0.19515844
0001c0 3b a7 0a bd ea c9 7c 3e fd 90 93 3d f4 20 72 3e
       -0.03385089 0.24686399 0.07205389 0.23645383
0001d0 37 36 b2 3d 4a b4 12 bd 55 c2 07 3e 5c 75 56 be
       0.08701747 -0.03581647 0.13257726 -0.20943207
0001e0 79 50 0f be 10 63 6a 3c 61 d0 e8 3c ba 88 5c be
       -0.13995542 0.014305845 0.028419675 -0.21536532
0001f0 1b fa 27 bc 8f 15 8b 3d 25 e3 b1 bc 4f 0f 58 bb
       -0.010252501 0.06791221 -0.021714756 -0.003296811
000200 fa 66 d8 bd 07 cd 96 bd 88 f6 9c 3d fe b3 81 bd
       -0.10566516 -0.073633246 0.076642096 -0.06333159
000210 1f 82 a1 be 1c c3 21 be 07 fb 9a bd dd 89 d5 3d
       -0.31544587 -0.15797085 -0.07567411 0.10426686
000220 4e 61 23 3e 02 71 70 3e 48 11 5f 3e 43 0a 15 3e
       0.15955088 0.23480609 0.21783936 0.14554696
000230 0e d3 ac 3d 7e fc 9b 3d 8c 51 ff 3d 65 41 6a 3e
       0.08438693 0.076165184 0.12466726 0.22876509
000240 58 22 01 3d 65 ab 05 3e d2 03 3d bc 66 ae 9f bd
       0.031526893 0.13053663 -0.011536555 -0.07796936
000250 05 32 cb 3d a6 e3 79 bc d1 e0 87 bd 37 8b f7 3b
       0.0992165 -0.0152520295 -0.06634677 0.0075544375
000260 15 6b be 3d e2 33 a2 3d 50 17 30 be 51 7e a3 3d
       0.09297768 0.07920052 -0.17196393 0.07983077
000270 e4 80 28 be bc 4a 43 3c ed 93 aa 3d 96 91 3e be
       -0.16455418 0.0119196735 0.08328996 -0.18610224
000280 16 d7 0c be 6f 8b 87 3b 41 31 2e be ec 97 c1 bb
       -0.13753924 0.004136495 -0.17010976 -0.005908003
000290 c9 e8 02 3e 88 3a 8a b9 1f ef e7 3d e7 3e 41 bd
       0.12784113 -0.0002636502 0.113249056 -0.04717913
0002a0 be 38 e9 bc 73 58 17 3e 3d 65 91 bd 43 ab 2f 3e
       -0.02846944 0.14779834 -0.07099388 0.17155175
0002b0 0c a1 da bd 3e 50 ea 3d 06 fa b4 3d 45 aa 8b bd
       -0.106752485 0.11441086 0.08836751 -0.06819586
0002c0 ba 39 fd 3d f5 e0 71 bd b4 ce 1b be 3f dc d6 bd
       0.12364526 -0.059052426 -0.1521557 -0.10491227
0002d0 98 03 93 bc ee 64 23 be c7 06 0e be cc 73 07 be
       -0.01794605 -0.1595647 -0.13869773 -0.13227767
0002e0 7d cf 0e 3d 84 67 c8 3d c4 00 8c 3d c2 2a d7 3d
       0.034865845 0.09785369 0.068360835 0.10506202
0002f0 56 df b5 3d 77 05 11 3d dd fb 2b be a8 5c cf 3c
       0.088804886 0.035405602 -0.16795297 0.025312737
000300 3d 84 99 bd 22 ed 35 3c f4 15 81 3d 5a c1 6b be
       -0.074959256 0.0111039 0.06303015 -0.23022977
000310 09 c8 2f 3d f4 9a 14 be cf 13 66 bd 31 60 16 bd
       0.042915378 -0.14512235 -0.056171235 -0.03671283
000320 d2 b0 83 bd 44 80 b0 bd 05 81 ba bd 42 dd 10 3e
       -0.0643021 -0.08618215 -0.0910664 0.14146903
000330 9e 33 45 be a0 cf 04 bd 37 b2 ad 3d 21 43 1c 3e
       -0.19257972 -0.03242457 0.084812574 0.15259983
000340 ae 82 b1 3d 9c 3f 18 3e 33 b1 a8 3d d8 b0 31 3e
       0.08667503 0.14868015 0.08236923 0.17352617
000350 ef 11 3f 3e 4a c5 c1 3d d2 ee 0b 3e f6 36 03 3e
       0.18659185 0.09461458 0.13665321 0.12813935
000360 3b 1e 17 3e eb 3d 16 be f6 4d 0c be 94 a3 24 be
       0.14757626 -0.14672057 -0.13701615 -0.16078025
000370 37 07 7f bd 75 b1 a2 bc ed 5a ef 3c d6 6e 04 be
       -0.06226274 -0.019860009 0.029218161 -0.12932906
000380 8c 28 e9 bd 16 39 b8 bd f3 3e ac bd 02 77 60 bd
       -0.11384687 -0.08995263 -0.08410444 -0.054800995
000390 79 72 07 3e 4a 7a 1e 3d 11 97 fd 3d bc 3b 32 be
       0.13227262 0.038690843 0.12382329 -0.174056
0003a0 83 8e 0d 3e 02 f9 fc 3d e3 3a 8a 3d d8 fc 08 3e
       0.13823895 0.12352182 0.06749513 0.13377702
0003b0 a1 1c 1e be c5 f1 1e be 67 38 bb 3d 44 af bf 3d
       -0.15440609 -0.15521915 0.09141617 0.09359601
0003c0 1d 6c ff bd 46 5a 9e bd 49 70 1a bc 04 81 d7 3c
       -0.12471793 -0.07732062 -0.009426185 0.026306637
0003d0 51 ae c6 bd 04 3d 26 3e e6 56 1d bd 44 f8 8a bd
       -0.09701217 0.16234213 -0.03841295 -0.06785634
0003e0 66 db 0d be 68 96 2a be c1 9b ac bd 73 b1 35 be
       -0.13853225 -0.16658938 -0.08428145 -0.17743473
0003f0 6d 21 e1 3d 93 60 1a be 12 d4 1c 3e 64 39 52 3d
       0.109927036 -0.15075903 0.15315273 0.051324263

features.0.bias f4 [16]
000000 8e b3 55 3d 4c 45 a7 bd f4 39 7e 3d 52 01 a4 3d
       0.05217319 -0.08167514 0.062066987 0.08008064
000010 73 d6 61 bd 2e 79 ce 3b ea 99 82 3d a9 2a 1a 3e
       -0.055136155 0.006301067 0.06377013 0.15055336
000020 ee be 16 3e 67 2e 76 bc 86 73 08 3e d2 9f e0 bd
       0.14721271 -0.015025712 0.13325319 -0.10967983
000030 15 c5 8d bd 2e 3d d5 3d 62 2a ce 3d b3 84 d9 bd
       -0.06922356 0.1041206 0.10066678 -0.106210135

features.3.weight f4 [32, 16, 3, 3]
000000 c6 9a 86 3d 84 89 4d 3c f0 7d 15 bd c1 d5 4c bd
       0.065724894 0.012544993 -0.036497056 -0.05000854
000010 b5 94 20 3c 40 d0 38 3d f4 4e 5a bb 5f e9 78 bb
       0.0098010795 0.045120478 -0.003331122 -0.0037980897
000020 19 13 68 3d 57 26 22 bd 3b c2 1f bd 4a 6b 2a bd
       0.056658838 -0.039587345 -0.039003592 -0.041606225
000030 f2 c3 f2 bc 4f 0b 04 bd 9c 49 4d bd d6 13 e8 3b
       -0.02963445 -0.032237347 -0.050119027 0.0070824428
000040 15 a7 2e bd 9b 3b d0 3c 16 5c a0 bc 63 da 2d 3d
       -0.04263981 0.025419047 -0.01957516 0.042444598
000050 e6 39 64 3d 05 40 2d 3d 75 e7 83 bd 13 2b 44 3c
       0.05571928 0.042297382 -0.06440631 0.01197316
000060 91 9f d5 bc 87 e4 f3 ba a2 cb e6 bc 7f cd a9 bc
       -0.026077064 -0.0018607535 -0.028173272 -0.020727871
000070 2c 22 1b bd 7e 4e ae bb f8 6c 53 3c 29 6f e9 bc
       -0.037874386 -0.0053194156 0.012904398 -0.028495388
000080 78 6c 7a 3c 94 19 f8 bc da b8 1b 3a 73 b5 52 3c
       0.01528465 -0.030285634 0.0005940326 0.012860644
000090 21 0a 2a bc 73 7c 77 bb 63 74 bc bc 6e 4d 9f 3b
       -0.0103783915 -0.0037763386 -0.023004716 0.0048615253
0000a0 c7 65 08 3c d1 5b 0f bd ac 85 f6 3b 47 5b be 3a
       0.008325047 -0.034999672 0.007523259 0.0014523052
0000b0 a0 f0 cb bb 47 e5 f8 bc 74 a2 19 3d f0 50 2c bd
       -0.006223753 -0.030382765 0.037508443 -0.042069376
0000c0 f9 ff ed bc ca 9f 5a 3c ed 86 c2 3b 0e b4 2d bd
       -0.029052721 0.013343761 0.0059364946 -0.04240804
0000d0 08 40 2a bd 62 ee 2d 3d 55 fd 46 bd 21 17 ff bc
       -0.04156497 0.042463668 -0.04858144 -0.031138958
0000e0 1d ad 60 bd 56 23 72 bd 9f 72 d1 bc 2a 79 3b 3d
       -0.054852594 -0.05911573 -0.02556735 0.045769848
0000f0 bc 66 7b 3d 15 10 cc 3c 1d a0 63 bd a5 93 90 bc
       0.061377272 0.024910012 -0.055572618 -0.017648527
000100 1f 4a 49 3a 99 be e1 3c b4 04 b5 3c 6b c4 6f bd
       0.00076785864 0.027556704 0.02209697 -0.05853693
000110 b0 de be bc 33 52 d5 bb f8 9e 32 bd 34 09 07 bd
       -0.023299545 -0.006510043 -0.043608636 -0.03296776
000120 ac b1 3c bd ee 8e d2 3c 1f 1f 65 bd fe b9 25 bd
       -0.04606788 0.02570292 -0.055937883 -0.04046058
000130 60 53 2f 3d ea 63 42 3d 72 a8 a7 3c 70 39 43 bc
       0.042804122 0.047458567 0.020466063 -0.01191555
000140 28 e9 b4 3d 46 9d 16 bd 05 cb 2e 3c dc 12 70 bd
       0.088335335 -0.03677108 0.010668521 -0.058611736
000150 bd 84 2c bd cc 8e 42 3d 7e 14 cb bc 48 38 2e bd
       -0.042118777 0.047499463 -0.024790045 -0.042534143
000160 6d 31 98 3d b2 fc 6b 3a c0 64 46 39 97 b5 3f ba
       0.07431302 0.0009002193 0.00018920284 -0.0007313131
000170 32 de a6 bc ef 56 33 3d 46 d6 3e 3d 0f 95 1d bd
       -0.020369623 0.04378408 0.046591066 -0.03847223
000180 cb 25 ae 3d 90 38 53 bd a7 c9 08 3c 9b ff e1 bc
       0.08503302 -0.051567614 0.008348859 -0.027587702
000190 d7 a1 1e 3c 9b 68 a4 3c 00 7b dd 3c e5 3e db 3c
       0.00968214 0.020069411 0.02703619 0.026763389
0001a0 44 b5 cd 3c be 5e ea ba 78 41 b1 3b a3 56 fc bb
       0.025110848 -0.0017881019 0.005409416 -0.0077007576
0001b0 d6 3d 02 bd e6 a9 27 3c 89 47 ef bc 19 27 a4 3c
       -0.031797253 0.010233378 -0.029208915 0.020038174
0001c0 b5 3a 4b bc 2e 52 99 bb 57 49 44 3c ff e0 8b bc
       -0.012404134 -0.004678986 0.011980376 -0.01707506
0001d0 f8 89 ae bc d7 d8 da 3b be 20 f8 39 61 30 1b bd
       -0.021306023 0.0066786814 0.0004732664 -0.037887935
0001e0 8d 4e f7 bc 35 be 90 bc b7 1a 8a bc 0d 5f 39 bc
       -0.030188823 -0.017668823 -0.016858442 -0.011314166
0001f0 72 dc 01 bc 22 eb a7 3c 4f 02 09 3d 9c 15 75 bd
       -0.007926093 0.020497862 0.033449467 -0.05983506
000200 7e 0a fc 3c 05 7b 47 3c bb b7 15 bd fe 87 a0 bc
       0.030766722 0.012175326 -0.036552172 -0.019596096
000210 af 57 85 bc d7 d3 f2 bc 73 b8 49 bb 9c d3 87 3d
       -0.016277162 -0.029642029 -0.0030780106 0.06632158
000220 0c a2 ea bc f2 dd 5f bc e3 45 80 bd 8f e5 80 3d
       -0.028641723 -0.013663756 -0.0626333 0.06293785
000230 bd 7b 91 3c d3 61 79 bd 68 76 84 3c c6 23 c8 3c
       0.017759198 -0.060884308 0.016169742 0.02443112
000240 e9 1e 91 3d 40 30 76 3d 89 90 22 3d 5b 98 84 bd
       0.07085974 0.06010461 0.03968862 -0.06474372
000250 4e 3f 1a bc 62 96 81 bd 87 a4 6e bd ff fb 55 3d
       -0.009414507 -0.06327511 -0.058262374 0.052242275
000260 e8 23 57 3d 7e ff ea bc 92 b6 48 bd 4c e9 73 bc
       0.052524477 -0.028686281 -0.049002238 -0.014887165
000270 23 7d dd bc 86 63 17 3c 23 18 cc ba 60 22 34 bd
       -0.027037209 0.009240037 -0.0015571158 -0.043978095
000280 3f bc c4 bb 68 44 f9 bc 2e a7 b3 3c 77 b1 5a 3d
       -0.006003886 -0.030428126 0.021930303 0.0533919
000290 aa d7 47 bc c2 1f 0e 3d e6 cd fd bc 53 85 dc bc
       -0.012197414 0.034698255 -0.03098197 -0.026919043
0002a0 f1 db 10 bd 21 94 df 3c 0c 3e 12 bc 08 1f 0d bd
       -0.035366002 0.027292313 -0.008925926 -0.03445342
0002b0 61 f4 17 bd 80 ee 8e 3c 8d ad 69 3b 00 28 da bc
       -0.037098292 0.01744771 0.0035656423 -0.026630402
0002c0 b0 a9 9f bc bc cb 7f bd 57 6d dc 3c 9b 8e b0 3b
       -0.019490093 -0.062450156 0.026907606 0.0053880936
0002d0 df a8 57 3d e1 8a c6 3d e7 c4 77 3d e2 cb ed 3d
       0.052651282 0.09694458 0.060490515 0.11611153
0002e0 e0 16 eb 3d 2c dc ea 3d 34 99 be 3d 7c 0d ad 3d
       0.114789724 0.11467776 0.09306565 0.084498376
0002f0 24 2d f3 3d 9b 75 0d bd a4 f5 a0 bc 32 73 42 bd
       0.11873844 -0.034535985 -0.01964838 -0.04747314
000300 7d b8 69 3c 9b a3 f9 bc 6e ec 62 bc 0a 53 e6 ba
       0.014265177 -0.030473521 -0.013850315 -0.0017572355
000310 14 60 4d 3b 35 f0 7e bc 72 81 25 3d 55 ad 1d bd
       0.0031337785 -0.0155601995 0.04040665 -0.03849538
000320 54 a6 56 bd a4 b2 26 bd e5 c2 70 3c 8f 8c 3f 3d
       -0.052404717 -0.04069771 0.014694904 0.046764906
000330 21 1c 09 3d f7 b5 2d 3d ae fc 51 3c 46 90 d5 3c
       0.03347409 0.042409863 0.012816591 0.026069771
000340 d6 91 b6 3c 5c 12 da bb 39 fe 5c 3b c2 a4 50 3d
       0.022286337 -0.0066550206 0.0033720864 0.050938375
000350 94 89 09 bd 32 19 2e bd 2c b3 34 3d 21 a3 bb 3c
       -0.03357847 -0.042504497 0.044116184 0.022904934
000360 f8 a3 8e bd 6c 09 e7 bc fc 3e 7a bd e6 ee 8d bc
       -0.06964868 -0.028202735 -0.061095223 -0.01732583
000370 02 b9 3e 3d 18 11 be 3c 49 ba 8f bd c0 43 2c bd
       0.046563156 0.02320151 -0.07017953 -0.0420568
000380 a4 2e 8e bd c9 1f 1e 3d 21 b3 11 bd 71 d4 31 3d
       -0.0694249 0.03860453 -0.03557122 0.04341549
000390 12 c0 4e bd 9c e1 99 3c 82 39 ee bc 3b a5 a6 3c
       -0.05047614 0.018784337 -0.029080156 0.02034246
0003a0 e8 ee 5c bd 7e 0f f2 3c f6 fa 9f bd 5b 98 09 3d
       -0.053938776 0.029548403 -0.07811539 0.033592563
0003b0 bf e9 46 bd ca 47 ef bc 75 ad db 3c 4f 29 4b bd
       -0.04856276 -0.029209036 0.02681611 -0.04959994
0003c0 e2 99 94 3c f1 8b 63 bd ec 91 5b 3d a1 cc 2b bd
       0.018139783 -0.05555338 0.05360596 -0.041943196
0003d0 7e 00 b7 3c 28 0b 8e bb 4d 11 21 bd 0f 68 dc 3c
       0.022339102 -0.004334826 -0.03932314 0.026905088
0003e0 15 38 fb 3b 28 4a c9 bc 19 62 07 bd 96 57 4f 3c
       0.0076665976 -0.024571493 -0.033052538 0.012655159
0003f0 a1 1f 9a 3c 93 31 f6 3c 5d fd d3 3c b1 ad 48 bc
       0.01881391 0.030052936 0.025877649 -0.0122484425

features.3.bias f4 [32]
000000 0f e8 6a 3d 72 90 7f 3d 4d b7 a3 3d d6 b6 be 3c
       0.057350215 0.062393613 0.07993946 0.023280542
000010 7c 41 94 3d 25 58 31 bd 0b 9c e1 bb 8b 8f 2e 3d
       0.07239053 -0.04329695 -0.006885057 0.042617362
000020 ec 94 2c 3d 45 d6 0e 3d 4b 1d 2b 3d d2 05 83 bd
       0.04213421 0.034872312 0.041775983 -0.063975945
000030 52 87 31 3c 33 5c 2c bc 6f 36 e4 bc 5b 00 bf 3d
       0.0108354855 -0.010520029 -0.027857987 0.0932624
000040 66 31 55 bd c9 23 e6 bc 7a 88 fc b9 7f bb bd bc
       -0.052049063 -0.028093236 -0.00048166869 -0.023160694
000050 5a 5e 98 3d 85 ec a0 3d 8d 9f fd 3b 2b 71 ff bc
       0.07439871 0.078576125 0.007739967 -0.031181892
000060 28 8d 22 bd 3f 59 de bc 5e 24 f0 bb eb c4 c9 3d
       -0.0396854 -0.027142165 -0.007328554 0.09852012
000070 15 47 e2 bc 37 97 12 bc 0b 8e 27 bd 73 44 83 3d
       -0.027621785 -0.008947185 -0.040906947 0.0640954

features.6.weight f4 [64, 32, 3, 3]
000000 d9 b6 34 a6 ba 5f dd 25 46 87 ec 25 01 09 7b a6
       -6.269785e-16 3.8402256e-16 4.103114e-16 -8.709532e-16
000010 0b bd 3c 26 f5 37 05 26 45 e5 4f 26 04 d6 32 26
       6.5481804e-16 4.621948e-16 7.212827e-16 6.20462e-16
000020 6a 24 3b 25 70 7e 30 a5 34 0f af a4 b0 a0 6e 23
       1.6232002e-16 -1.5308405e-16 -7.591991e-17 1.2936033e-17
000030 4f b1 b0 25 5d c1 b9 25 60 c9 9d a5 20 a3 94 a5
       3.0651282e-16 3.2223412e-16 -2.7371616e-16 -2.5784445e-16
000040 c4 d7 b3 a4 76 33 b5 24 55 d4 0a a6 30 cf 61 24
       -7.79944e-17 7.8583416e-17 -4.816613e-16 4.8964592e-17
000050 0d 33 02 a6 8f f2 62 26 f4 83 77 26 df ad 2e a6
       -4.5171997e-16 7.873823e-16 8.587417e-16 -6.0604016e-16
000060 63 69 cd a5 5b 25 23 a6 66 b0 00 25 2b 59 a6 26
       -3.5633244e-16 -5.660261e-16 1.1161996e-16 1.1542733e-15
000070 47 a1 e0 a6 0f 64 e1 a6 2c 52 4f 26 36 f6 0c 27
       -1.5586837e-15 -1.5639632e-15 7.1928916e-16 1.9562374e-15
000080 04 36 20 27 d8 81 59 a6 a5 34 26 26 1c 1a 0c a7
       2.2233742e-15 -7.546297e-16 5.7664166e-16 -1.9443057e-15
000090 e4 c9 44 b1 e9 87 d3 b3 cb 98 c0 b3 2d 60 24 b2
       -2.8636515e-09 -9.850175e-08 -8.9684896e-08 -9.567924e-09
0000a0 64 8e 80 b3 5c e7 01 b5 3f 35 de b3 07 92 69 b4
       -5.986365e-08 -4.8392917e-07 -1.0347366e-07 -2.175294e-07
0000b0 be da 2d b5 07 4d 19 aa 28 71 27 aa 35 d0 20 aa
       -6.4765834e-07 -1.3615854e-13 -1.4871839e-13 -1.4283091e-13
0000c0 eb 9d 14 af 99 2e 64 af 20 74 c7 2b e2 80 84 2b
       -1.3516625e-10 -2.0753034e-10 1.4172032e-12 9.414936e-13
0000d0 45 7e fc 2a e6 f4 27 2b aa 9e 7f a8 fb 6b 34 b0
       4.485181e-13 5.9670183e-13 -1.4189748e-14 -6.563707e-10
0000e0 3d 9d e8 af 31 c8 c1 ae e1 20 15 b1 98 ac 2a b2
       -4.231228e-10 -8.812185e-11 -2.1701043e-09 -9.934546e-09
0000f0 4e c8 d0 b1 d4 39 3d b0 f1 b0 b3 b1 16 21 6d b6
       -6.0763687e-09 -6.883998e-10 -5.2297016e-09 -3.533501e-06
000100 83 21 91 b6 90 e5 6f b6 1c ad 3f b8 93 a3 81 b8
       -4.325238e-06 -3.5747398e-06 -4.569917e-05 -6.1816674e-05
000110 92 05 18 b8 5b 43 13 b7 14 e0 3a b7 8d 80 6a b7
       -3.624481e-05 -8.777565e-06 -1.1138636e-05 -1.3977417e-05
000120 6b 93 08 a5 f2 c5 f5 a5 b7 c1 e9 a5 2f a8 59 26
       -1.1846067e-16 -4.2634858e-16 -4.0550323e-16 7.551493e-16
000130 eb c0 30 26 dd fe 5b 26 c2 eb 07 25 7c 31 28 25
       6.132372e-16 7.632629e-16 1.1789261e-16 1.4588443e-16
000140 71 91 6b a6 d6 36 e9 2b 5f f3 db ad 8a 37 09 ac
       -8.1729113e-16 1.6570866e-12 -2.5005496e-11 -1.9499701e-12
000150 b8 fa ce b0 06 db d5 b0 e1 c2 bc b1 24 4f 8d af
       -1.5059731e-09 -1.556004e-09 -5.4936753e-09 -2.5703983e-10
000160 ea 52 62 af 29 cd 31 af 03 ad 4c 2c a5 3e 8e ab
       -2.0584037e-10 -1.6170944e-10 2.9086184e-12 -1.0107094e-12
000170 ba a2 99 ad b0 4e b0 af 2a a3 74 b0 24 f8 88 b1
       -1.7466351e-11 -3.2070124e-10 -8.8998553e-10 -3.9863313e-09
000180 19 7b dc ad ca ca 85 b0 26 81 1d b1 3a 46 98 a6
       -2.506577e-11 -9.73466e-10 -2.291992e-09 -1.0566154e-15
000190 7f c5 0c a6 04 ff 9f a6 a7 0e af a5 a1 b0 4c 26
       -4.8839914e-16 -1.1101963e-15 -3.036759e-16 7.1016095e-16
0001a0 00 eb 62 a6 02 f4 03 26 7e 8e 30 a6 22 b6 01 26
       -7.8727986e-16 4.5780447e-16 -6.125538e-16 4.50027e-16
0001b0 b2 21 eb af ef b4 61 b0 21 de 18 b0 94 4b 8a b4
       -4.2770193e-10 -8.2111645e-10 -5.561294e-10 -2.5759493e-07
0001c0 72 58 4c 35 c2 f4 90 b4 7b 71 b0 b1 db ba f1 b1
       7.6124627e-07 -2.7000175e-07 -5.1351754e-09 -7.035266e-09
0001d0 ab 29 b8 32 70 1c 2b 22 32 38 06 21 29 e2 59 21
       2.1439368e-08 2.3189876e-18 4.547534e-19 7.382178e-19
0001e0 54 5e 2f 1f 2c 90 1b 20 ca 50 f8 1e bd 69 c8 9e
       3.7135718e-20 1.3176713e-19 2.6291435e-20 -2.1219556e-20
0001f0 e8 06 b7 1f 59 2f dd 9e f1 e8 a5 a5 58 d1 40 a5
       7.751494e-20 -2.3418868e-20 -2.8780785e-16 -1.6724274e-16
000200 4f 59 fb a4 dd f2 e3 a5 a5 a4 d1 a5 8e 17 b9 a5
       -1.0900519e-16 -3.9542793e-16 -3.6367288e-16 -3.2108346e-16
000210 3c 67 ba a5 b2 29 e7 25 82 1e f0 a4 4e 36 ad 26
       -3.233581e-16 4.0100366e-16 -1.0413509e-16 1.2019006e-15
000220 4c c6 20 27 9c 22 a7 a7 35 7d 8f 28 35 bb cf a6
       2.2311957e-15 -4.6389335e-15 1.5930489e-14 -1.4414253e-15
000230 b7 e8 c4 a7 c5 73 b1 a7 e1 05 c8 a7 90 c8 bd a7
       -5.465324e-15 -4.9252886e-15 -5.5517525e-15 -5.267549e-15
000240 90 92 58 b0 57 22 2c b0 37 79 15 b0 d0 84 54 b3
       -7.878862e-10 -6.2622035e-10 -5.437814e-10 -4.948089e-08
000250 fa e8 51 b3 3e 8c 5e b3 92 cf 89 b1 be 48 ea b1
       -4.8873495e-08 -5.1815952e-08 -4.010823e-09 -6.818566e-09
000260 78 5c 97 b2 1f 43 20 a6 6e 48 47 26 af 46 31 28
       -1.7620764e-08 -5.5602117e-16 6.9140155e-16 9.840801e-15
000270 a3 98 de 27 95 3a db ab e5 8a ac ad 9d 02 28 2a
       6.1782867e-15 -1.5577146e-12 -1.9615818e-11 1.4922304e-13
000280 11 6e 08 2b eb bf 29 29 d6 2e 44 23 28 aa 15 22
       4.8469654e-13 3.7692e-14 1.0635099e-17 2.0283345e-18
000290 e0 31 c6 a2 f4 ce af a1 05 1f ce 22 45 97 21 a1
       -5.3720815e-18 -1.1913241e-18 5.5869255e-18 -5.4749125e-19
0002a0 34 34 b5 20 4d fa 79 21 9f c5 b5 a2 c8 b8 47 b7
       3.0697138e-19 8.469575e-19 -4.9269388e-18 -1.1904347e-05
0002b0 f6 6a 80 b7 4b e5 2b b7 8c 8c cd b6 09 90 88 37
       -1.5308597e-05 -1.0245781e-05 -6.125838e-06 1.6279535e-05
0002c0 82 9c 3c b8 e9 75 f1 b6 6f 17 51 b8 81 3e 46 b8
       -4.4968452e-05 -7.1960862e-06 -4.9851307e-05 -4.726509e-05
0002d0 b6 9a d0 b1 59 21 63 b2 1e c9 9b b1 a0 71 61 b2
       -6.0711853e-09 -1.3220721e-08 -4.533958e-09 -1.3122559e-08
0002e0 d4 09 ae b2 31 f8 28 b2 7b 39 fc b1 b0 ca 60 b2
       -2.0260735e-08 -9.835319e-09 -7.3407e-09 -1.3084602e-08
0002f0 b8 27 f2 b1 56 8e eb b6 34 0d 07 b7 3d a5 28 b7
       -7.0476425e-09 -7.020116e-06 -8.049701e-06 -1.0052053e-05
000300 7d eb 95 b7 82 86 c7 b7 63 ce 1c b8 1f 91 9e b7
       -1.7871842e-05 -2.3785284e-05 -3.738551e-05 -1.8902645e-05
000310 c9 c9 78 b7 de a4 42 b8 dc 3d fb 23 d9 72 c0 25
       -1.4828934e-05 -4.640675e-05 2.7239673e-17 3.3384515e-16
000320 f2 81 43 a4 16 31 cd 25 e8 f1 8c a5 c4 8d cd 25
       -4.2393953e-17 3.5595093e-16 -2.445005e-16 3.5657895e-16
000330 0b 43 c0 25 ce 43 98 a5 58 c8 14 24 f3 dd 96 26
       3.335212e-16 -2.6413743e-16 3.2262082e-17 1.04685e-15
000340 88 c3 37 26 97 83 be 26 ab e7 99 26 7f ad d2 a9
       6.3755873e-16 1.3219566e-15 1.0679301e-15 -9.35597e-14
000350 03 c7 ef a7 61 39 83 26 e5 81 87 26 1b 62 ce a6
       -6.6551595e-15 9.105504e-16 9.402715e-16 -1.4320713e-15
000360 4b 01 f3 a9 64 c1 f9 a9 60 0f 24 a9 0f e3 61 2c
       -1.0791592e-13 -1.1091369e-13 -3.642865e-14 3.2100466e-12
000370 6e 1d 07 ae f4 5d 93 2b 5d fd 8a 2a 9d 7c 06 2a
       -3.0721585e-11 1.0471055e-12 2.468953e-13 1.1944825e-13
000380 48 f1 63 2c 80 e5 69 22 68 dc b2 9f 24 ab 25 23
       3.2392578e-12 3.1698885e-18 -7.5750564e-20 8.980908e-18
000390 09 d1 36 a2 45 3e 12 22 f5 10 50 a2 6b d0 51 23
       -2.4776262e-18 1.9819655e-18 -2.8198233e-18 1.1374047e-17
0003a0 00 73 86 a2 43 18 b9 a1 91 d4 28 a0 41 32 f9 1f
       -3.6442534e-18 -1.254251e-18 -1.4300486e-19 1.0553874e-19
0003b0 06 35 89 9f 84 6f a3 23 c7 b3 a2 a3 87 53 d1 9f
       -5.810948e-20 1.7719724e-17 -1.7640214e-17 -8.865313e-20
0003c0 fb 04 e2 1f ce 9b de 9f d0 8a 90 a0 80 4d c5 b3
       9.572296e-20 -9.4278414e-20 -2.4486407e-19 -9.1876245e-08
0003d0 d3 3d 14 b4 ba 77 a7 b4 8d 83 d5 b5 a8 15 10 b6
       -1.3806066e-07 -3.1193287e-07 -1.5908023e-06 -2.1470278e-06
0003e0 fb 88 5f b6 ba e2 1c b5 30 9d db b5 83 94 2b b6
       -3.3309323e-06 -5.844446e-07 -1.6362519e-06 -2.556743e-06
0003f0 aa 3f 81 28 1d 54 93 a8 32 d1 60 28 ba 03 a0 2b
       1.4349487e-14 -1.6356757e-14 1.247986e-14 1.1369718e-12

features.6.bias f4 [64]
000000 3a 6f 2c b9 e4 89 c8 39 5b e4 91 b8 f2 7b 1f 3c
       -0.00016444633 0.0003824971 -6.956673e-05 0.009734141
000010 8b 7e 52 b1 15 0a 9d 3d e7 16 25 3c a9 aa 25 bc
       -3.0630953e-09 0.076679386 0.010076261 -0.010111489
000020 b7 45 6f ba 4c 3a 77 3d 23 78 55 bc d7 aa 3b b3
       -0.0009127515 0.06035833 -0.013029131 -4.369471e-08
000030 d0 8e 4f 3d 30 e5 9c bb b1 c6 2c 3c 68 df b4 3c
       0.050673306 -0.0047880635 0.010545419 0.022079185
000040 35 20 85 3d 36 5b 74 bc b0 69 b9 3c c7 b6 73 3c
       0.06500284 -0.0149143245 0.022633404 0.0148751205
000050 6d af 15 bc 7a f0 4a bb 6e 6d 9c ba 5b 2f 7c 3d
       -0.009136063 -0.003096609 -0.0011934468 0.0615686
000060 8d f8 84 bc e9 bb 53 3b e7 a5 bc 3c 15 a6 93 3b
       -0.0162318 0.0032308048 0.023028327 0.0045058825
000070 be 2b e8 bb 0d 5b 85 ba 85 d1 19 bd e3 89 8d ad
       -0.0070852926 -0.001017423 -0.03755333 -1.6091078e-11
000080 34 7b 11 3c f3 5d ca bc 88 0f 5d b8 3e 81 35 3c
       0.008879472 -0.024703002 -5.270497e-05 0.011078177
000090 bb a0 44 3d 1a ee 45 3d 24 86 a4 bc f8 4c 4e bd
       0.048004847 0.048322774 -0.020083494 -0.050366372
0000a0 7e 87 a2 bb 44 40 5f bc f3 1d 15 3d b2 5d 38 3d
       -0.0049599996 -0.013626162 0.036405515 0.04501123
0000b0 37 ca a7 ba 32 17 af 3d a3 da bb b9 da 4d 7c 3b
       -0.0012801354 0.08549346 -0.00035830316 0.0038498552
0000c0 01 58 ec 3b 19 1e fd 3c 61 c3 96 bb d7 66 80 3c
       0.0072126393 0.03089814 -0.0046009277 0.015674038
0000d0 f9 75 25 3c 51 69 8a 3d 76 8c 90 3d 29 a2 62 bc
       0.010098928 0.06758369 0.07058041 -0.013832607
0000e0 2b 2a f1 bb 14 75 4e 3d 33 6b 7c 3c 8c 03 14 ba
       -0.007359763 0.050404623 0.015406418 -0.00056462805
0000f0 03 78 58 b9 a6 1a 83 3d e2 7f 0d 3d ce 3a 15 bc
       -0.00020644073 0.06401567 0.034545787 -0.009108258

classifier.1.weight f4 [128, 64]
000000 0e 5e 30 39 0c 56 57 36 83 26 2b ba 96 b0 66 ba
       0.00016819706 3.2087582e-06 -0.0006528871 -0.0008800117
000010 80 15 22 ba 34 09 b5 bd da 87 54 3c d6 cd 3f bc
       -0.00061830133 -0.08839646 0.012971843 -0.01170679
000020 49 a4 9d a7 4d 32 0f 3d 88 74 03 bd 98 b7 40 3a
       -4.375437e-15 0.03496008 -0.032093555 0.00073515764
000030 2d 76 dc 3d 75 aa 58 be 78 f5 df 3a 80 3e 89 bd
       0.10764728 -0.21158774 0.0017086705 -0.06701374
000040 2c 4d 82 bd 6c e8 c4 bc f7 74 52 bb 80 6a 98 bd
       -0.063623756 -0.024036609 -0.0032113174 -0.07442188
000050 cd a1 40 b8 4d 70 57 bd 4d 69 34 37 c0 71 65 bd
       -4.5927056e-05 -0.052597333 1.0753353e-05 -0.056016684
000060 7b 63 da bd 22 99 ef 37 6a e5 f3 3d d8 e1 c8 b9
       -0.10663506 2.8562328e-05 0.11908992 -0.0003831524
000070 ca 4a 51 3d 63 dd 2b bb 54 a9 f5 3d 55 76 cb 9d
       0.051096715 -0.0026224486 0.119951874 -5.3856005e-21
000080 22 25 b2 bc c6 60 08 3c 5d c3 28 39 14 10 30 bd
       -0.021746222 0.008323854 0.00016094507 -0.042984083
000090 5b 1c 7e 3d 36 13 ff bc 09 80 cb 3d 55 c2 00 3e
       0.06203876 -0.03113709 0.0993653 0.12574132
0000a0 b0 cc 25 a4 db e8 d4 bd 74 58 38 3d 39 b6 e6 3c
       -3.595205e-17 -0.10395976 0.04500623 0.028163062
0000b0 d8 a2 ee ba 44 64 db 38 e4 c9 0a b2 0b 56 0c 3b
       -0.001820649 0.0001046141 -8.078562e-09 0.002141359
0000c0 05 16 21 39 8c 4c b6 3d 23 59 2d ba ee c1 d6 3c
       0.0001536236 0.08901319 -0.00066127087 0.02621552
0000d0 75 52 d3 38 26 d1 07 3d da 8f c4 bc 1d 75 f1 3c
       0.00010076623 0.033158444 -0.023994375 0.02947479
0000e0 fe 46 d1 3d 94 83 99 3d 9e c4 53 3d 2b f8 ae 39
       0.10218619 0.074958 0.05170118 0.00033372766
0000f0 69 42 8f 3d 07 c9 b6 bd 8b a3 90 bd e2 4b d9 3c
       0.069950886 -0.08925062 -0.07062443 0.026525442
000100 93 53 0d 35 bf cf 79 ba cb 4b a0 31 65 1a b4 39
       5.264821e-07 -0.0009529553 4.6652295e-09 0.0003435194
000110 f4 8d d3 16 70 54 10 bd d4 26 35 3c 82 32 7c bd
       3.4178474e-25 -0.035236776 0.011056621 -0.061571606
000120 51 42 71 29 9d 6f 21 3c 38 40 fe ba 79 8c b5 16
       5.357027e-14 0.009853271 -0.0019397801 2.9330778e-25
000130 27 9f 8a bd b3 73 8d 3b 67 1a 35 3b e7 f3 94 bc
       -0.06768637 0.004316771 0.0027634145 -0.018182708
000140 4e 9b a2 bd 82 bd f2 bc 8a 76 bc 3a 70 77 30 bd
       -0.07939778 -0.02963138 0.0014378589 -0.043082654
000150 14 a4 81 31 87 46 b2 bc 04 9c cf 36 75 85 b9 bc
       3.7730477e-09 -0.021762146 6.1872433e-06 -0.022646645
000160 dd 99 26 3a b3 a3 f5 3a 7d d0 73 3b e2 b7 00 ba
       0.0006355325 0.0018740803 0.0037203126 -0.0004910213
000170 80 7e 28 36 35 de 9a ba d0 70 5b bc 28 f9 66 19
       2.5107583e-06 -0.001181549 -0.013393596 1.1941038e-23
000180 5b ed 6b bd 37 82 81 b6 02 9f e0 b5 d4 20 ae 3c
       -0.057599407 -3.8596586e-06 -1.6735578e-06 0.021255888
000190 9f 84 c8 3c 0b e2 a5 bd cb ab b7 3b 75 e0 03 bd
       0.024477301 -0.08099755 0.005605196 -0.03219648
0001a0 a7 b6 2c 32 e2 30 17 3d d2 25 69 bb 3f 77 77 bd
       1.0053248e-08 0.036911853 -0.0035575521 -0.060416456
0001b0 39 a4 af 3a e9 53 3a bd 29 d5 95 b0 ae f2 9b bb
       0.0013400383 -0.04549018 -1.0901761e-09 -0.0047591543
0001c0 c5 9f 9c 37 b6 75 ea bc 9d 21 b3 ba 22 fe 90 bd
       1.8671048e-05 -0.028620582 -0.0013666634 -0.07079722
0001d0 47 45 06 3b f2 a3 58 3c 74 86 5b 3d a2 d1 1f bd
       0.002048807 0.013222681 0.05359502 -0.03901828
0001e0 78 e8 0e bc 39 49 7c ba 67 3a 44 3d 00 72 a1 91
       -0.008722417 -0.0009623948 0.04790726 -2.547158e-28
0001f0 1f 14 04 bc c2 bb 9b 3c 35 22 e1 bc e8 72 05 b5
       -0.008061438 0.019010428 -0.027482131 -4.971357e-07
000200 77 cb af ba dc 40 20 3a 8b 02 ee 39 88 a2 75 ba
       -0.0013412078 0.00061131804 0.00045396792 -0.00093702273
000210 10 47 19 bb cd 6b ee bc 90 94 a9 bc 4b 76 6a 3d
       -0.0023388304 -0.029104138 -0.020700723 0.05724172
000220 1d b5 db ac 95 7b 84 3d 92 b1 de bc 1f 79 20 3a
       -6.244462e-12 0.06468884 -0.027184281 0.0006121564
000230 e1 47 67 3d ab f7 a7 bd f7 07 35 3c 78 b3 8c 3b
       0.056465033 -0.08201536 0.011049262 0.0042938553
000240 94 a2 e6 3c a9 2b 55 3d 27 5e bf 3d f9 dc f0 3d
       0.028153695 0.05204359 0.0934413 0.11760897
000250 d4 90 82 b9 00 a2 76 3c 9b 2b d5 38 48 73 dc 3d
       -0.00024903438 0.015053272 0.000101647536 0.10764176
000260 e4 da 6e bd 30 ba 42 3b 10 33 b4 3d f6 c7 ce bc
       -0.05831422 0.0029713027 0.08798802 -0.025241833
000270 a7 45 93 3b fc 7e 3e bc 01 ed 93 bd 04 d8 1b 9d
       0.004494387 -0.011626955 -0.07222939 -2.0625757e-21
000280 35 61 68 bd 31 0c 4d 3d c8 db 7d ba a9 43 33 3c
       -0.05673333 0.050060455 -0.0009683934 0.010941424
000290 8f 3c 1b 3d f5 e9 9f bd c1 01 d0 3d d4 65 79 3c
       0.03789955 -0.07808296 0.101565845 0.015222032
0002a0 ce 8c 50 33 6c 97 7d 3d fa 04 42 bd e5 46 e4 3d
       4.8556835e-08 0.061911985 -0.047368027 0.111463346
0002b0 db 7c 22 bb 5a 5b 7f bd c0 85 92 b9 af e9 09 bb
       -0.0024793658 -0.06234298 -0.00027946942 -0.0021043827
0002c0 8f 3c 5e 3b 31 25 11 bd 94 8d 3e bb e4 8f 6a bb
       0.0033910607 -0.03543586 -0.0029076086 -0.0035791332
0002d0 f1 1b 60 b9 4f 78 0c bc fd e6 c5 3c 34 62 5d 3c
       -0.00021372714 -0.008573606 0.024157995 0.013512183
0002e0 4b 82 cb 3d 5f 0c 69 3d ed 86 d0 3d 97 35 c2 ba
       0.09936961 0.056896564 0.10181985 -0.0014816996
0002f0 3a a9 b8 bd 12 02 1c 3d 8e 6d 97 3d df b3 de bc
       -0.090166524 0.038087912 0.07393943 -0.027185379
000300 e9 f6 fb 39 bd e4 92 bb e9 32 ab b9 ea e7 ae bb
       0.00048058413 -0.004482834 -0.00032653593 -0.005337705
000310 36 2d 08 bb 64 0a a7 3d 3a 90 f1 ba 89 b5 a6 3b
       -0.00207789 0.08156279 -0.0018429824 0.0050875586
000320 ae 31 35 b0 ec e8 98 bd 73 a4 f7 bb b4 51 75 3b
       -6.5918015e-10 -0.07466301 -0.0075574457 0.0037432732
000330 c7 56 9e 3d 2b b7 d0 bb d6 94 ae bb af d0 72 3c
       0.07731395 -0.0063694916 -0.005327801 0.014820262
000340 66 6e 87 3c a0 b8 e8 bd d2 ba 89 3d 71 a5 b9 bd
       0.016532134 -0.113633394 0.06725086 -0.090647586
000350 e4 d4 3d bb 03 37 79 bc 98 ca 29 38 9e 69 90 3d
       -0.0028966004 -0.01521087 4.048142e-05 0.07051395
000360 71 1b 81 bd f4 3a 94 3b de d6 3b 3d 33 68 a7 bc
       -0.06304062 0.0045236293 0.04585921 -0.020435428
000370 a9 bb b4 3c 9b ae 8b 3c 32 33 9d 3d 6b 7e 08 1c
       0.02206214 0.017051032 0.0767578 4.5162017e-22
000380 96 dc b7 bb 67 64 36 3d 03 16 7e ba b6 f8 64 be
       -0.0056110127 0.044529345 -0.0009692611 -0.223605
000390 f6 ab 9e 3d 21 6f 47 3d 63 5a 0e be a6 a3 9b 3c
       0.07747643 0.048689965 -0.13901667 0.018998932
0003a0 d4 13 14 b7 0c cc 54 3d 12 a4 21 3c 3a 65 d9 3d
       -8.826104e-06 0.051952407 0.009865778 0.106150106
0003b0 7e 0f b1 3c 7b cc e0 bd df 55 9a 39 aa 88 0c 3a
       0.021613833 -0.109765016 0.00029437148 0.00053609407
0003c0 81 52 86 3a f9 5b 8f 3d 25 b6 04 bc 02 81 27 3d
       0.0010247977 0.06999964 -0.008100067 0.040894516
0003d0 b4 99 ca bb 23 f2 55 bd b0 23 97 3d 90 02 d1 bb
       -0.0061828736 -0.052232873 0.07379854 -0.0063784793
0003e0 c8 49 8d 3d 09 b2 da 3d 90 84 cc 3d 83 9d 17 bc
       0.06898838 0.10678489 0.09986222 -0.009253862
0003f0 9b d0 82 bd 92 36 90 3d 2d ec 98 3d 6d 9d 10 3b
       -0.063874446 0.070416585 0.07466922 0.002206649

classifier.1.bias f4 [128]
000000 33 33 5f 3d 1e b1 0d bd ef 33 76 3d d7 32 83 3d
       0.054492187 -0.03459274 0.06010812 0.06406181
000010 06 a8 09 3d 5b 56 41 ba bf ac 94 ad 7b 48 6c 3d
       0.033607505 -0.00073752337 -1.6902367e-11 0.05768631
000020 18 b4 29 bc aa 47 84 bc 80 8e 1a ba 6c 43 6b 3c
       -0.010357879 -0.016147453 -0.0005895868 0.014359336
000030 ac 35 64 b9 84 a5 43 bd 84 bd 72 3c c0 7b aa b6
       -0.00021763769 -0.04776527 0.014815692 -5.080801e-06
000040 4a ba d6 3d 2e 23 0c 3d 38 9f 50 ba 5f 03 6f bd
       0.104847506 0.034213237 -0.0007958296 -0.058352824
000050 92 60 69 3c d8 3d 75 3d 54 66 3c bc 62 22 c1 bd
       0.014244216 0.059873432 -0.011499006 -0.09430386
000060 a3 89 3f bb 5b 80 b5 2c a0 82 bf 3b 82 99 44 3c
       -0.0029226325 5.1585797e-12 0.005844429 0.01199949
000070 42 da e5 3c d9 23 d9 3d 79 79 89 3c 58 83 a6 3d
       0.028058175 0.106025405 0.016781555 0.081305206
000080 37 6e 74 bc 06 f6 a9 3d 97 ba c0 bd 7e fa d6 bd
       -0.014918855 0.08298878 -0.09410589 -0.10496996
000090 40 41 9e 3d 8a 79 86 3d f2 cb 9c bb 11 3e 2d 3d
       0.07727289 0.065661505 -0.0047850544 0.04229552
0000a0 54 c4 21 b4 7c a1 3b bd e8 bb 1e ba bb 0c 65 bb
       -1.5065717e-07 -0.0458083 -0.0006055222 -0.0034950215
0000b0 22 d1 ac b2 63 b2 11 bc da bf 7a bc 1d 73 0a 3e
       -2.0118538e-08 -0.008892628 -0.01530453 0.13520475
0000c0 8d 58 bf 3d 11 fd b0 3d 5b 95 a1 3d ef 44 37 bc
       0.093430616 0.086420186 0.078898154 -0.011185869
0000d0 17 07 72 bc d7 9a 85 bb ae 2a d7 28 1f e3 01 3e
       -0.014772198 -0.0040772962 2.3888304e-14 0.12684296
0000e0 af 98 42 bd 17 5a cf bc e4 39 9a 36 2a 8f 88 3d
       -0.04750889 -0.025311513 4.596297e-06 0.066679314
0000f0 2a f8 c3 3b fd e7 8e 3c 1b 00 64 ab d8 64 3f ba
       0.005980511 0.017444605 -8.100202e-13 -0.00073010987
000100 0c af 50 bd 24 f9 51 3c 69 47 98 3d cc bf 1b bc
       -0.050948188 0.012815747 0.074354954 -0.009506177
000110 fa 81 00 3d c8 99 4a bd ab 60 66 3d fd 2b 38 3c
       0.031373955 -0.049463063 0.056244534 0.011240956
000120 5f 26 0c 3d 0d 17 5a bd d1 19 80 bd e0 68 67 bc
       0.03421628 -0.05324464 -0.06254924 -0.014124125
000130 b9 66 94 3d dd b9 95 3d 6c 46 5d bc ac 1b 8b 3d
       0.07246155 0.07310841 -0.013505559 0.06792387
000140 bc 56 92 b8 c8 bb be bc f1 d4 2b b9 36 28 cb 3c
       -6.977978e-05 -0.0232829 -0.00016387158 0.024799448
000150 b1 f8 b9 3d 5c a9 85 b5 92 7c 3f 3b bd 6e 1c bb
       0.09080637 -9.958562e-07 0.0029218537 -0.0023869716
000160 49 04 af b9 81 0c 21 3d 7c f0 2c bd 70 1d ce b8
       -0.00033381794 0.039318565 -0.04222153 -9.8283286e-05
000170 43 03 7f bd d1 6f 5f bc 5f f7 62 3d c2 55 f6 3c
       -0.06225897 -0.013637499 0.055411693 0.03007019
000180 ba f3 f1 3d 3f 09 3c b3 06 56 b2 3d 81 a9 1b 3e
       0.11814065 -4.378057e-08 0.08707814 0.1520138
000190 b1 4b 6c 3d cf f2 9c b8 fa 2e 40 3d 1a 0c 97 3d
       0.057689372 -7.483886e-05 0.0469198 0.07375355
0001a0 42 2d 9e 3d ff 86 71 bc 6e 2f 49 3d 69 ea 6f 34
       0.07723476 -0.014741658 0.049117498 2.2343887e-07
0001b0 9f cc 06 bb 56 fe 7e bb 0d 1c 18 bd 45 6c 88 3d
       -0.002056874 -0.003890892 -0.037136126 0.06661276
0001c0 d1 ab 85 3b f6 9a 26 3c d4 d2 19 b2 0a 71 d6 3d
       0.00407932 0.0101687815 -8.953709e-09 0.10470779
0001d0 22 5f cb 3d a5 f2 a6 b6 c3 2e 1c 31 2e 34 81 3d
       0.099302545 -4.975433e-06 2.2727569e-09 0.063087806
0001e0 f5 50 de 3d 7e 29 c3 ba 5b a2 d4 37 f5 5e 86 ad
       0.10855285 -0.0014889685 2.5347972e-05 -1.5276206e-11
0001f0 d1 f5 8c bd 05 27 f3 ba b9 63 46 bb e9 f3 3a bd
       -0.06882823 -0.0018551057 -0.0030271842 -0.045642767

classifier.4.weight f4 [18, 128]
000000 35 88 78 3c 4c 16 8e bc b1 55 84 3c a1 65 02 bd
       0.015169193 -0.017344616 0.016154142 -0.031835202
000010 c8 d2 6b bc 4d 5a 54 3b a7 b5 51 b8 e1 6a 2a 3c
       -0.014393516 0.0032402456 -4.999866e-05 0.0104014585
000020 50 9c cc bc 32 8c 29 bd 75 ee 3a bc 1e 5c 15 bb
       -0.02497688 -0.041393466 -0.011409392 -0.0022790502
000030 29 18 f5 37 1e 64 83 bd 53 69 f1 3c 10 43 84 bb
       2.9217526e-05 -0.0641558 0.029469168 -0.004036315
000040 62 3b 2c bd c6 4f f8 bc 9e aa 9f 3b 59 e9 5d bd
       -0.04204882 -0.030311476 0.004872634 -0.054177616
000050 97 5b 0a bd b2 fe b0 bd e4 21 70 3c 22 82 77 3b
       -0.033778753 -0.08642329 0.014656518 0.0037766774
000060 0a b6 55 3c a3 ac 7a 2c 6b 79 78 3c 2a 50 c7 bd
       0.01304389 3.562297e-12 0.015165667 -0.09732087
000070 4f 36 dd bb bb 09 93 bd b1 a2 b6 3c f6 25 16 3c
       -0.006750859 -0.0717959 0.022294374 0.009164324
000080 e1 b3 2c bb b3 f1 e9 bb e9 15 26 bd 29 88 19 bd
       -0.0026352333 -0.0071394085 -0.04054824 -0.037483368
000090 c0 20 cb bd c5 41 2f bd 2c a6 22 3a b4 4f 44 bd
       -0.09918356 -0.042787332 0.0006204571 -0.047927573
0000a0 aa 51 73 33 8f 76 c2 bd af ba 9e 3a 2c f2 92 bc
       5.665212e-08 -0.094952695 0.0012110079 -0.017937742
0000b0 04 c8 f9 bb 86 56 3c bd 58 5f a2 3b b3 4b bb bc
       -0.0076227207 -0.045980953 0.0049552135 -0.022863245
0000c0 ab db 34 bd 8f a9 67 bb c5 dc 5c bc a6 66 82 bc
       -0.044154804 -0.0035348868 -0.01348037 -0.015918087
0000d0 47 b9 9c bb e4 b8 19 bb 8e 2f 1d 39 47 65 af bd
       -0.004782829 -0.002345615 0.00014990402 -0.08564239
0000e0 75 03 00 bc 8e 2b c4 bc 61 90 d6 35 cf 6b 90 bd
       -0.007813324 -0.02394655 1.5986262e-06 -0.07051813
0000f0 9d aa b0 3a c4 cb ee 3c 64 40 f0 ad 40 f4 c1 38
       0.0013478581 0.029149897 -2.7313436e-11 9.248452e-05
000100 6a e7 9b bd df 9b c6 bd 6e 52 8b bc e1 18 44 bd
       -0.07612498 -0.09697699 -0.017007079 -0.04787529
000110 a3 8d 59 3a 75 ac f0 bd b3 a7 04 3a f4 28 d8 39
       0.00082989986 -0.117516436 0.00050603895 0.00041229243
000120 55 24 63 b9 1e 02 52 bd 36 4b 63 bd 00 2d e6 3b
       -0.00021661942 -0.05127155 -0.05549165 0.0070244074
000130 f8 27 a3 bd 80 d5 af bd 6e 96 6b 3c f7 cf 4a bd
       -0.07966608 -0.08585644 0.014379127 -0.049514737
000140 45 1c 95 bb 34 3a 03 bc d2 f8 5c bc 9c 6b 41 bd
       -0.004550489 -0.008009482 -0.013487058 -0.047221765
000150 d6 4a 0f 3d f4 5a cd b2 97 7a 20 bd 4d a1 6e bb
       0.03498348 -2.3906502e-08 -0.03917941 -0.003641206
000160 50 be 0a ba 3f 50 15 3d e0 14 ee 3b 3a a6 3d bb
       -0.0005292641 0.03645348 0.007265672 -0.002893819
000170 bd 96 1d be bf f6 ec bc 5a 3b 46 bd 03 34 85 bd
       -0.15389533 -0.028926251 -0.048396446 -0.06504061
000180 07 19 a4 bd 4c 1a c0 34 78 47 03 bd 34 87 b3 bc
       -0.08012586 3.578192e-07 -0.03205058 -0.021915056
000190 8b 9f 06 bd 52 14 12 bc f7 18 c0 3c ee e2 b7 3c
       -0.032866996 -0.008915978 0.023449404 0.022447076
0001a0 27 05 52 bd 6a 57 89 31 2d 03 04 3c 93 df bc bb
       -0.051274445 3.9971626e-09 0.008057398 -0.005763957
0001b0 93 a6 0b 98 17 18 17 b9 8c 68 de bc 1b 92 36 bd
       -1.8049427e-24 -0.00014409456 -0.027149461 -0.04457293
0001c0 7d 72 45 3b 41 54 20 bc 35 6b fe 18 67 bc 0c 3c
       0.0030128055 -0.009785713 6.5765713e-24 0.0085898405
0001d0 ca 86 8a bd dd a8 18 bc 74 0b a8 31 2a 77 73 bb
       -0.0676399 -0.009317604 4.8907456e-09 -0.0037149885
0001e0 e0 68 b0 3c d2 76 2f bc 4a a9 30 36 10 30 f5 2c
       0.021534383 -0.010709481 2.6324583e-06 6.968655e-12
0001f0 41 5f 47 b9 98 d2 d2 ba b9 e3 80 bc 8f fa b9 bb
       -0.00019013604 -0.001608449 -0.015733587 -0.005675621
000200 da 89 bb bd eb df 96 bc 01 a4 ae bd 37 1f 5f bd
       -0.091571525 -0.01841732 -0.08527375 -0.05447313
000210 c5 1c 0e 3c 87 8e b3 39 c2 ca 80 b9 6d 13 fb 3b
       0.008673851 0.00034247732 -0.0002456513 0.007662228
000220 ff 6d 7b bb fd 84 05 bc 7a e9 23 bb 42 4b 3a 3c
       -0.0038365123 -0.008149383 -0.002501099 0.011370482
000230 f3 0b c9 b7 b9 0c 67 ba f2 b2 5c bd 6b 6c 20 b9
       -2.3966631e-05 -0.00088138465 -0.053881593 -0.00015299178
000240 9d 2d d8 bd 54 28 dc bc 19 a9 63 bb cf 05 74 bc
       -0.10555575 -0.026874699 -0.0034738241 -0.014893963
000250 df 6f 87 bd b9 f0 aa bd bf e1 a2 bc b8 4a bc ba
       -0.066131346 -0.083466955 -0.019883035 -0.001436553
000260 f0 ab 72 3c 55 8c b2 ac bd 29 9b 3c 7e f3 96 bd
       0.014811501 -5.0746443e-12 0.0189408 -0.07370661
000270 b3 82 22 bd d1 c9 d2 bc 95 0e 84 bd 40 24 7b bc
       -0.039675426 -0.025731 -0.06448094 -0.015328467
000280 f7 36 90 bd ba 5d 56 3c 1c 66 0c bd b9 2d 11 3d
       -0.07041734 0.01308387 -0.034277067 0.035443995
000290 56 ff 0b bd 04 1b 93 bd 99 d8 6a b7 f7 10 43 3b
       -0.034179054 -0.07182887 -1.3997917e-05 0.002976475
0002a0 e3 59 e2 b1 58 ab f0 bc 77 17 11 3b 7e e9 f5 3c
       -6.5876846e-09 -0.029378578 0.002213923 0.030018564
0002b0 80 7f ba ba 66 78 a1 bd d5 8f fc bb 94 9c 90 bd
       -0.0014228672 -0.07884292 -0.007707576 -0.07061115
0002c0 8e 14 22 bd 62 a2 ae bd 68 e7 b4 bd f4 21 51 bb
       -0.039570384 -0.08527066 -0.088332 -0.0031911107
0002d0 6a de 67 3b e9 a7 28 bc 04 45 1b 2a 3b e8 25 bd
       0.0035380372 -0.010293939 1.379071e-13 -0.040504675
0002e0 78 e7 70 bd 6d e6 0b 3b 1c 5a 02 b5 63 e0 55 bd
       -0.058814496 0.0021347061 -4.85599e-07 -0.052215945
0002f0 c1 27 1f ba 48 cd 1a 3d 6a d5 b0 3a c3 d8 67 34
       -0.00060712924 0.037793428 0.0013491337 2.1592409e-07
000300 f1 ac dc bc 1d a8 28 bc 46 33 e0 ba 48 fc ad 3a
       -0.026937934 -0.010293988 -0.0017105124 0.0013274038
000310 f7 c3 61 3b 9c df b3 bd 1b 26 87 bd b0 59 0a 3a
       0.003444908 -0.087828845 -0.06599065 0.00052776467
000320 5c 0a 7a 39 c5 48 9c 3c d9 7c 4f 3d 52 81 9d bd
       0.00023845717 0.019077668 0.050656173 -0.076906815
000330 91 58 14 bd a3 1d a8 bd eb 3a 86 3c 4e ce 59 bd
       -0.036217276 -0.08208778 0.016385516 -0.053175263
000340 08 c7 77 bb 36 a8 48 3c 6a a0 35 3b 18 6f 8a bd
       -0.003780784 0.012247136 0.0027714022 -0.06759471
000350 51 8c 73 bd 19 4d 33 b3 cd f7 95 bd c1 7b 7a bc
       -0.059459988 -4.1746805e-08 -0.07322655 -0.015288294
000360 e0 c1 6d bc 5c ca 88 3c 8f 95 5f bd 08 2a a2 39
       -0.014511555 0.016698055 -0.05458599 0.00030930364
000370 8c 04 ad bc 24 63 21 3d 0c d9 35 bd c2 3e 64 bd
       -0.021120332 0.03940119 -0.044396445 -0.055723913
000380 a3 de a2 bd 49 b9 d1 a9 9f f1 3c bd 01 52 b0 bd
       -0.07952621 -9.313606e-14 -0.046128865 -0.08609391
000390 16 72 ad bd 9b 2e 40 bb 7c af d7 bc e0 fe 15 bb
       -0.08469026 -0.0029324654 -0.026328795 -0.0022887513
0003a0 fc 96 f3 bc d0 de 3c 34 df 5a 83 bd 08 d9 01 3c
       -0.02973508 1.7589923e-07 -0.06413817 0.007925279
0003b0 fd e4 15 17 e0 e0 7c 3c ea 98 a7 bc 21 5b b2 bc
       4.843352e-25 0.015434474 -0.020458657 -0.02177197
0003c0 81 bc 84 bb b5 50 f8 bd 5d 4a 31 15 9f ef a6 bc
       -0.0040507917 -0.12124769 3.5803528e-26 -0.020377932
0003d0 ce d6 15 bc cb 15 4a bc eb d5 a3 b0 17 8a 93 bc
       -0.009145452 -0.012334297 -1.192061e-09 -0.018010182
0003e0 a0 c6 57 bb b1 c0 03 bb 03 23 c8 37 7e d3 67 2c
       -0.0032924786 -0.0020103867 2.3858162e-05 3.2944476e-12
0003f0 59 92 62 b9 33 0c 82 3b 03 a9 04 3d a2 39 06 bc
       -0.00021607558 0.0039687394 0.032387745 -0.008192452

classifier.4.bias f4 [18]
000000 9a ab 01 bd be 9c dd bc 48 d0 05 be 19 6d a1 bd
       -0.031657793 -0.02705228 -0.13067734 -0.07882137
000010 ed 0f fb bd fb 50 a0 bd fb e7 29 bd cd 66 84 bb
       -0.12258897 -0.07827946 -0.041481 -0.004040575
000020 81 61 e1 3c 22 d1 af bd 56 f0 b3 3c cb 32 e0 bd
       0.027512314 -0.08584811 0.021965187 -0.10947188
000030 bf 2c 08 be 3e a5 3c bd 33 db 1d bd fc a8 42 bd
       -0.1329832 -0.046056025 -0.038539123 -0.047524437
000040 b7 be 53 bc fd 76 9d bd
       -0.012923888 -0.07688711
