best_pokemon_model.pth (torch, 423781 bytes, 30 tensors)

features.0.weight f4 [16, 3, 3, 3]
0	0xbde91411	-0.113807805
1	0x3e20760e	0.15670034
2	0x3d2b9391	0.041888777
3	0x3dc90bf2	0.098167315
4	0xbd1d68e1	-0.0384301
5	0x3dc1725d	0.09445641
6	0x3d0c3604	0.0342312
7	0xbdc1ce42	-0.09463169
8	0xbe2bdcda	-0.16783467
9	0x3df03b99	0.11730117
10	0xbcee3a08	-0.029080406
11	0xbc824333	-0.015901184
12	0x3e1be43b	0.15223782
13	0x3d4dbe1b	0.050230127
14	0xbdd352a9	-0.103185005
15	0xbdb0dee6	-0.086362645
16	0xbdafa71e	-0.08576797
17	0x3b8e9f5e	0.004352494
18	0xbd9f2ff5	-0.07772819
19	0x3dbd7d82	0.09252454
20	0x3d07fe6d	0.033201624
21	0x3ddcf92e	0.10789715
22	0x3e1f7ccb	0.15574948
23	0xbd9571b4	-0.07297078
24	0xbd89d149	-0.06729371
25	0x3dc08728	0.09400779
26	0xbd79b424	-0.06096281
27	0x3d5c9160	0.053849578
28	0x3cc4746a	0.023981292
29	0x3de2bee1	0.110715635
30	0xbdbfe168	-0.09369165
31	0x3dc20237	0.09473079
32	0xbe14058a	-0.14455238
33	0x3bf167b3	0.0073670982
34	0x3dd38b21	0.10329271
35	0xbdb1ecad	-0.086877204
36	0x3e331946	0.1749011
37	0x3df38b49	0.11891801
38	0x3debf63d	0.115215756
39	0x3d796ae2	0.060892947
40	0x3dafa8c8	0.08577114
41	0x3c80943d	0.015695686
42	0x3dc73de2	0.097286
43	0xbd746850	-0.059669793
44	0x3c74f545	0.014951055
45	0x3d581ccb	0.052761834
46	0x3dab4ceb	0.0836428
47	0xbe0c0e00	-0.13677216
48	0xbd828fd5	-0.0637509
49	0x3d8cd04d	0.06875668
50	0x3d927a6e	0.07152258
51	0xbc702a6a	-0.01465855
52	0x3ddcbabf	0.107778065
53	0xbe031305	-0.12800224
54	0xbd0fe105	-0.035126705
55	0x3d63badd	0.05559813
56	0xbd91aec8	-0.07113415
57	0x3c1702b6	0.009216955
58	0x3d86abd0	0.065757394
59	0xbd617804	-0.055046096
60	0xbd8e82c6	-0.06958537
61	0xbe0cb0ac	-0.1373927
62	0x3c731470	0.014836416
63	0x3ddab9ac	0.10679945
64	0x3e3a224e	0.18177149
65	0x3d2d71b0	0.04234475
66	0xbdcefd5a	-0.10106917
67	0xbe11de19	-0.1424488
68	0xbe283456	-0.16426215
69	0x3d7d0b3a	0.061778285
70	0xbc2597ff	-0.0101070395
71	0x3c3b88e7	0.011446214
72	0xbe45f51f	-0.19331788
73	0xbd877c3e	-0.06615494
74	0xbe241a0b	-0.1602556
75	0xbe14b04c	-0.14520377
76	0x3d4cb750	0.049979508
77	0x3e1a7c4e	0.15086481
78	0xba7d0ded	-0.0009653259
79	0x3e1a6bfc	0.15080255
80	0xbd31de7a	-0.04342506
81	0xbe21b68a	-0.1579229
82	0x3d4d1ec8	0.050078183
83	0x3d52d8b0	0.05147618
84	0xbe111d19	-0.14171256
85	0x3dbf6d1e	0.09346984
86	0xbe348655	-0.17629369
87	0x3d8d3c65	0.06896285
88	0x3c1c806f	0.009552105
89	0x3d0988ab	0.033577602
90	0x3c89f78e	0.016841676
91	0xbd5196b0	-0.051169097
92	0x3d8dbb40	0.06920481
93	0x3e3bd8c9	0.18344416
94	0xbe26d941	-0.16293813
95	0xbd702874	-0.05863233
96	0xbe01217e	-0.12610433
97	0xbe329794	-0.17440635
98	0xbc1fca1e	-0.009752778
99	0xbe227b19	-0.1586727
100	0x3b2cc8f3	0.0026364892
101	0x3c1f5c4d	0.009726596
102	0xbcc7d200	-0.024392128
103	0xbda794be	-0.08182667
104	0x3b2ff479	0.0026848598
105	0x3e17751e	0.1479077
106	0x3de4ccc8	0.111718714
107	0xbe163c2e	-0.14671394
108	0x3e30a857	0.17251717
109	0x3e0b53ba	0.13606158
110	0x3dae42c2	0.08508827
111	0xbde14578	-0.10999578
112	0x3d566f18	0.05235204
113	0xbdb3a315	-0.0877134
114	0x3d70c39c	0.058780298
115	0x3cd5fa7d	0.026120419
116	0x3de19c40	0.110161304
117	0x3e3609df	0.17777203
118	0x3c02e4f5	0.007989158
119	0x3e5d4c56	0.21611151
120	0xbbeb898e	-0.0071880287
121	0x3e25b06c	0.16180581
122	0xbd85713c	-0.06515738
123	0x3e3fca7b	0.18729584
124	0x3d12ddbb	0.03585599
125	0x3e113e0a	0.14183822
126	0xbd02f2d1	-0.03196985
127	0xbcfd9b49	-0.030957835
128	0xbdb6ef4a	-0.089323595
129	0x3da477ef	0.08030688
130	0x3dd56006	0.10418706
131	0xbe1ac30e	-0.1511347
132	0x3cfeef9e	0.031120118
133	0xbe1be435	-0.15223773
134	0xbcc2e3a9	-0.023790197
135	0x3e29b8e6	0.1657444
136	0x3e189beb	0.14903228
137	0x3d49a51e	0.049229734
138	0x3e0d1528	0.13777602
139	0x3d9cf0eb	0.07663139
140	0xbcc2b308	-0.02376701
141	0x3ca29b10	0.01984933
142	0x3dbe5250	0.092930436
143	0xbdec0898	-0.11525077
144	0xbc51c508	-0.012803324
145	0xbce15f64	-0.027511306
146	0xbc4d9e06	-0.012549883
147	0xbdcb15dd	-0.099162795
148	0x3e448ca1	0.1919427
149	0xbc2f7d78	-0.010711066
150	0x3d992a74	0.074788004
151	0x3e330d21	0.17485477
152	0x3e49f821	0.1972356
153	0xbd72ad57	-0.05924734
154	0xbdece410	-0.11566937
155	0x3dfe1402	0.1240616
156	0xbc889039	-0.016670333
157	0xbe2f4ddc	-0.17119545
158	0x3dd29393	0.10282054
159	0x3df39f6f	0.11895644
160	0x3e14c082	0.14526561
161	0xbd209838	-0.039207667
162	0x3e152267	0.14563905
163	0x3d17a7b5	0.037025172
164	0xbb473e78	-0.0030402225
165	0x3d37218a	0.04470972
166	0xbd234eb0	-0.039869964
167	0xbddd35c6	-0.10801272
168	0x3d0c2311	0.03421313
169	0xbd5a9b31	-0.05337066
170	0x3d811023	0.06301906
171	0xbe276db0	-0.16350436
172	0x3dc7dc18	0.097587764
173	0xbdd48e52	-0.10378708
174	0x3d380f32	0.044936366
175	0x3ddd4969	0.108050175
176	0x3da45585	0.08024124
177	0xbe15e956	-0.14639792
178	0xbe064504	-0.13112265
179	0xbe102448	-0.1407634
180	0xbc4cd916	-0.012502929
181	0x3d48afff	0.048995968
182	0x3c841554	0.016123451
183	0x3e124ebe	0.1428785
184	0x3d2c3524	0.042042866
185	0xbe1fe608	-0.15615094
186	0x3db459bd	0.08806179
187	0x3e3b1cfe	0.18272778
188	0xbda2abe2	-0.0794294
189	0x3d3ee351	0.046603505
190	0xbe313df6	-0.17308792
191	0xbd76a1d3	-0.06021292
192	0xbe16300e	-0.14666769
193	0x3e047291	0.12934329
194	0x3e1b7c2b	0.15184085
195	0xbd7fa4b8	-0.062412947
196	0xbdc6e82b	-0.09712251
197	0x3e00ffe7	0.12597619
198	0xbe39f442	-0.18159583
199	0xbdddcce2	-0.10830094
200	0x3c1a38c8	0.009412952
201	0xbbfbd18f	-0.0076848934
202	0xbe026cad	-0.12736769
203	0x3dbe18f9	0.09282107
204	0xbd002bb1	-0.031291667
205	0xbe2a286e	-0.16616985
206	0x3d7ed0e1	0.06221092
207	0xbe08d26b	-0.13361518
208	0x3e36b336	0.17841801
209	0xbe052b3c	-0.13004774
210	0xbe2a63ce	-0.16639635
211	0xbe1479f3	-0.14499645
212	0x3c944a52	0.018101845
213	0x3cc20fb7	0.023689134
214	0xbdcfb827	-0.10142546
215	0x3d822e55	0.063564934
216	0xbe1f20b5	-0.1553982
217	0x3e080dea	0.13286558
218	0x3d82f01f	0.06393456
219	0x3b60fd10	0.0034330525
220	0x3d50256b	0.050816935
221	0xbd98d9e5	-0.07463435
222	0xbdafb3c3	-0.08579209
223	0xbe1d3afa	-0.15354529
224	0x3db41173	0.08792391
225	0xbe13dbcf	-0.14439319
226	0x3dec02c6	0.115239665
227	0x3dd56ef7	0.104215555
228	0xbca38c14	-0.019964255
229	0xbd6bf2df	-0.057604667
230	0xbdee774c	-0.11643848
231	0xbe3233fc	-0.17402643
232	0x3dcc56a7	0.09977465
233	0xbcc4bed5	-0.024016777
234	0xbd440d1d	-0.04786407
235	0x3ca47b1a	0.02007823
236	0x3cae7808	0.02129747
237	0xbd20f04d	-0.03929167
238	0x3bc3156a	0.0059534805
239	0xbd5510ec	-0.05201809
240	0x3de1d8f0	0.11027706
241	0xbdad77e6	-0.084701344
242	0xbd8a482c	-0.06752047
243	0xbc217d99	-0.009856605
244	0xbe052c95	-0.13005288
245	0x3e07b63a	0.13253108
246	0x3e1060d9	0.14099444
247	0x3e2a5cc7	0.16636954
248	0xbdd581d4	-0.104251534
249	0xbcf794c6	-0.030222308
250	0xbcce63c7	-0.025194062
251	0xbd98bf4a	-0.074583605
252	0xbe264809	-0.16238417
253	0xbdb3a4be	-0.087716565
254	0xbd0848f9	-0.033272717
255	0x3e11dd1d	0.14244504

features.0.bias f4 [16]
0	0xbc4bb0b7	-0.012432269
1	0xbd2ddec7	-0.042448785
2	0x3d97e4ea	0.07416709
3	0xbd93260e	-0.07184993
4	0x3e32baae	0.17454025
5	0x3e01fda0	0.12694407
6	0xbd7e6f1f	-0.062117692
7	0x3e3c368a	0.1838018
8	0xbca34883	-0.019932037
9	0x3e21d406	0.15803537
10	0x3e367bf1	0.17820717
11	0x3c585fcc	0.0132064335
12	0xbe30d414	-0.17268401
13	0x3da69288	0.08133417
14	0xbcf291dd	-0.029610569
15	0xbdade141	-0.084902294

features.3.weight f4 [32, 16, 3, 3]
0	0xbc8974e0	-0.016779363
1	0xbc8a6be4	-0.01689715
2	0xbdad2bb9	-0.08455605
3	0xbd33116a	-0.04371778
4	0xbd75582f	-0.05989855
5	0xbc260413	-0.010132807
6	0xbd196253	-0.037447285
7	0xbd899baf	-0.067191474
8	0x3c0e1ad2	0.008673387
9	0x3c67f98b	0.014158617
10	0xbd76eaf5	-0.060282666
11	0x3d00fdfa	0.03149221
12	0x3d339d57	0.043851223
13	0x3c1dfd1f	0.009642868
14	0xbb846211	-0.0040400107
15	0x3c9dd524	0.019266672
16	0x3ca6de3d	0.020369643
17	0x3cee6441	0.02910054
18	0xbd4c3fa1	-0.04986537
19	0xbb8df129	-0.004331727
20	0x3d407f5e	0.046996467
21	0x3cd290c6	0.025703799
22	0xbc2fc2f1	-0.01072763
23	0x3c01e1b0	0.007927343
24	0xbbea5b32	-0.0071519846
25	0x3c20d8b8	0.009817295
26	0x3d2ec88d	0.04267173
27	0xbd1387de	-0.036018245
28	0xbd235632	-0.039877124
29	0x3b5847ff	0.0033001897
30	0x3d426d50	0.04746753
31	0xbaa062ba	-0.0012236454
32	0xbd01d415	-0.031696398
33	0x3d95e575	0.07319156
34	0x3d9d453a	0.076792195
35	0xbd1d3e32	-0.038389392
36	0xbd008012	-0.031372137
37	0xbc962c0d	-0.018331552
38	0x3d0c4e7a	0.03425453
39	0x3d59db64	0.053187743
40	0xbcf43e5c	-0.029814892
41	0x3cddbecd	0.02706852
42	0xbd0c6eac	-0.034285232
43	0x3d8b982e	0.06816135
44	0x3bdc0967	0.006714988
45	0x3d2f0cf2	0.042736955
46	0xbd1c28f7	-0.038125005
47	0x3d0b5181	0.034013275
48	0x3c85edbd	0.016348714
49	0x3cbce7e9	0.023059802
50	0xbd4088a7	-0.04700532
51	0xbd365b75	-0.044520814
52	0x3d7b22cc	0.06131248
53	0x3beb8da9	0.007188518
54	0xbd831627	-0.064007096
55	0x3a82d128	0.0009980546
56	0xba131931	-0.0005611359
57	0x3d12a6a1	0.03580344
58	0xbd8cd95a	-0.06877394
59	0x3cac7d75	0.021055916
60	0xbcd2b0b0	-0.025719017
61	0x3d063ff6	0.03277584
62	0xbd2fc706	-0.042914413
63	0x3cf7350b	0.03017666
64	0x3d1c7d85	0.038205642
65	0x3d03ff37	0.032225814
66	0x3dbb7cac	0.09154639
67	0x3d06fed8	0.03295788
68	0x3ca723a9	0.020402746
69	0xbd1b9310	-0.037982047
70	0x3db7aceb	0.08968528
71	0x3dad900a	0.08474739
72	0xbd507c37	-0.05089971
73	0xbd07db3c	-0.033168063
74	0x3cd54596	0.026034158
75	0x3d8d1e6d	0.06890569
76	0x3da86bb8	0.08223671
77	0xbb78f39a	-0.0037986995
78	0x3be85b0a	0.007090931
79	0x3c0a8389	0.008454212
80	0x3d730920	0.059334874
81	0xbd46cce6	-0.04853525
82	0xbd4e1bb8	-0.050319403
83	0x3c26f5d6	0.010190448
84	0xbd8241b2	-0.06360187
85	0xbd2b0c16	-0.041759573
86	0xbd66743b	-0.05626319
87	0xbd621491	-0.055195395
88	0xbd40f9da	-0.047113277
89	0xbb82cc0e	-0.0039916104
90	0x3d69cb26	0.057078503
91	0xbd2cfad7	-0.042231407
92	0xbd244d17	-0.04011258
93	0xbc993d21	-0.018705906
94	0xbcd3895b	-0.025822332
95	0x3da1dfb3	0.07903995
96	0xbce9d1f7	-0.028542502
97	0x3c1f643f	0.00972849
98	0x3c971372	0.01844189
99	0xbd2cf57d	-0.042226303
100	0x3d80850f	0.06275379
101	0x3cfb9fc3	0.030715829
102	0x3d8a5278	0.06754011
103	0x3c65ebd9	0.014033281
104	0xbc2b84ad	-0.010468644
105	0x3d5d859f	0.05408251
106	0xbcee3187	-0.02907635
107	0x3d092be0	0.033489108
108	0x3d0c2cd2	0.03422243
109	0x3d34d8cb	0.044152062
110	0x3a10196f	0.0005496954
111	0x3b38fb8f	0.0028226112
112	0x3d702d7b	0.058637124
113	0x3d144e29	0.03620735
114	0x3d784e1f	0.060621377
115	0x3bd05f8f	0.0063590477
116	0x3d869f05	0.06573299
117	0x3c8de50c	0.017321132
118	0x3cd60ba0	0.02612859
119	0xbd42af4c	-0.047530457
120	0xbccd9b3a	-0.025098432
121	0xbb878e9b	-0.004136873
122	0xbd02cf80	-0.03193617
123	0xbcaf8931	-0.021427723
124	0x3d77632e	0.06039732
125	0xbd41c4d9	-0.04730687
126	0x3db539fa	0.08848949
127	0xbd23efc3	-0.040023576
128	0xbd2ef107	-0.04271033
129	0xbc73f62b	-0.014890234
130	0x3ce49989	0.027905243
131	0x3d722aea	0.059122957
132	0xbd6c0e3a	-0.057630755
133	0xbc95d122	-0.018288199
134	0x3da556fd	0.08073232
135	0xbbb1a286	-0.0054209856
136	0x3b0fba64	0.0021931166
137	0xbd81e8a0	-0.06343198
138	0xbc883579	-0.01662706
139	0xbcc4ffc6	-0.024047744
140	0xbd8bf8cc	-0.068345636
141	0x3c9097e0	0.017650545
142	0xbd6f019e	-0.05835115
143	0xbcb5ff4f	-0.022216467
144	0xbd1e6455	-0.038669903
145	0xbd4608ae	-0.04834812
146	0xbd3d7b95	-0.046260435
147	0xbca0ca76	-0.01962779
148	0xbd41db80	-0.047328472
149	0xbbfe55b8	-0.0077616833
150	0xbce7d8e8	-0.028301671
151	0xbd2227e8	-0.03958884
152	0xbcb21a31	-0.021741005
153	0xbcc37030	-0.023857206
154	0xbc3abf84	-0.0113982
155	0x3c61e27e	0.01378691
156	0xbc8df6ab	-0.017329535
157	0xbaeee4da	-0.0018226162
158	0xbd318ded	-0.04334824
159	0xbd36e2a3	-0.04464973
160	0xbb7945dd	-0.0038036027
161	0xbca2b29c	-0.019860558
162	0x3c31be60	0.010848612
163	0xbd8247ee	-0.06361376
164	0x3da602fb	0.08106037
165	0xbd663f35	-0.056212623
166	0x3d7a2959	0.06107459
167	0xbd140680	-0.03613901
168	0x3cd8964e	0.026438858
169	0x3cd4d1c6	0.025978934
170	0x3da35f21	0.07977129
171	0xbc6e9699	-0.0145622725
172	0xbd4982e5	-0.049197096
173	0x3d5418f8	0.051781625
174	0xbbd62a46	-0.006535801
175	0xbcb9997b	-0.022656193
176	0xbd75ca1b	-0.060007196
177	0x3d2eff7b	0.042724114
178	0xbd4a989e	-0.049461953
179	0xbd149a44	-0.03627993
180	0xbd836862	-0.06416394
181	0x3c908739	0.017642604
182	0x3c338a49	0.010958263
183	0x3c9190c2	0.017769221
184	0x3b3ffe12	0.0029295725
185	0xbcbb4cc8	-0.02286376
186	0xbd373a16	-0.04473313
187	0xbcf02a20	-0.029316962
188	0x3b8ff00b	0.004392629
189	0xbd07baf9	-0.033137295
190	0xbd567d8d	-0.05236583
191	0xbd69e7f2	-0.057105966
192	0xbd73a82b	-0.05948655
193	0xbd55ea68	-0.0522255
194	0xbb774111	-0.0037727992
195	0x3c26ed9f	0.010188489
196	0xbccd0fb3	-0.0250319
197	0xbd0b1dff	-0.033964153
198	0x3d69d328	0.05708614
199	0x3c980f04	0.018561848
200	0xbc8e5739	-0.017375575
201	0x3aca3cae	0.0015429461
202	0x3d07a838	0.03311941
203	0x3ba27375	0.004957611
204	0xbd3f4536	-0.046696864
205	0xbcf339b2	-0.029690597
206	0x3cd2c724	0.025729723
207	0x3c5d1718	0.0134942755
208	0x3dba0183	0.090823196
209	0x3dabcaa0	0.08388257
210	0xbc1c4825	-0.009538685
211	0xbd0b0a84	-0.033945575
212	0xbc79263f	-0.0152068725
213	0x3d85c5f2	0.06531896
214	0x3c2b33fe	0.010449408
215	0xbc96e510	-0.018419772
216	0x3d1f7abf	0.03893542
217	0x3d89dd16	0.06731622
218	0x3d590285	0.05298092
219	0x3d364ee8	0.044508845
220	0xbd0fef16	-0.03514012
221	0xbccb09bb	-0.024784913
222	0xbd1025b5	-0.03519221
223	0x3c903d17	0.017607255
224	0x3cbc496e	0.022984233
225	0xbc640d5b	-0.0139192
226	0xbc8da2f4	-0.017289616
227	0xbc75c927	-0.015001572
228	0xbd0605a1	-0.032720212
229	0x3c88e3ec	0.016710244
230	0xbcb7bb1a	-0.022428084
231	0xbd8900d3	-0.0668961
232	0x3ba25cbf	0.004954904
233	0xbd8336c5	-0.06406931
234	0x3bee772d	0.0072773905
235	0xbd49846a	-0.049198546
236	0xbd2eedac	-0.04270713
237	0x3d688d41	0.056775335
238	0xbd62b8c6	-0.055351995
239	0x3cc66b45	0.024221072
240	0xbd327ce3	-0.043576133
241	0x3d9fe585	0.07807449
242	0xba22b708	-0.00062070834
243	0x3b4cfa1d	0.0031277009
244	0x3c613f67	0.013748026
245	0x3af15b4b	0.0018414048
246	0xbd2eea6e	-0.04270404
247	0x3b0fc5f5	0.002193806
248	0xbd378cd1	-0.044812027
249	0x3cc59083	0.02411676
250	0x39e3311e	0.0004333341
251	0xbd5bf62d	-0.05370157
252	0x3d8a0c29	0.067406006
253	0x3da7bd09	0.081903525
254	0x3da029ec	0.07820496
255	0xbd78a7b7	-0.06070682

features.3.bias f4 [32]
0	0x3d223090	0.039597094
1	0x3d926d99	0.0714981
2	0x3da405be	0.08008908
3	0x3d1ca97b	0.038247567
4	0x3d9d0810	0.076675534
5	0xb9dd3fc6	-0.0004219992
6	0x3db9cffb	0.09072872
7	0xbd6b5d0b	-0.05746178
8	0xbd28339a	-0.041064836
9	0xbcb804b1	-0.022463175
10	0x3c864212	0.016388927
11	0xbc5aea18	-0.013361476
12	0xbd3511e7	-0.044206526
13	0x3d8cd9b9	0.06877465
14	0xbba9c7cb	-0.005181288
15	0x3bf81cc1	0.007571787
16	0xbbf6bced	-0.007529846
17	0x3d31ecf1	0.043438856
18	0xb876bffa	-5.8829763e-05
19	0xbd83ba4f	-0.0643202
20	0xbd167268	-0.0367302
21	0xbcd0e0aa	-0.025497753
22	0x3d84db34	0.06487122
23	0x3d214441	0.039371733
24	0x3c4d1b88	0.012518771
25	0xbd28ec4a	-0.041240968
26	0x3dba7476	0.091042444
27	0xbbccacd0	-0.006246187
28	0x3da8884d	0.08229122
29	0xbcf5873e	-0.029971715
30	0x3c918e63	0.01776809
31	0x3da75827	0.081711106

features.6.weight f4 [64, 32, 3, 3]
0	0x3d15103a	0.036392428
1	0xbcb7f1e1	-0.022454204
2	0x3c3d906b	0.011570076
3	0xb83846ec	-4.393507e-05
4	0x3d44a327	0.048007157
5	0x3ca88556	0.020571392
6	0x3d3a24e6	0.045445345
7	0xbbd6b609	-0.006552462
8	0x3d03cc33	0.03217716
9	0xbd16a767	-0.03678074
10	0x3be44bec	0.0069670584
11	0x3d20787e	0.03917741
12	0x3a1ab4cc	0.00059015746
13	0x3c58bd62	0.013228746
14	0x3cf7305a	0.030174423
15	0x3be4cfab	0.0069827638
16	0x3d6c2438	0.05765173
17	0x3cbecf8d	0.023292327
18	0x3d31ad1b	0.043377977
19	0x3d33c107	0.043885257
20	0xbc6cbf0b	-0.014449845
21	0xbc1c9462	-0.009556862
22	0x3c666ff0	0.014064774
23	0x3d60cdf9	0.05488393
24	0x3b847b05	0.0040429854
25	0xbc863876	-0.016384345
26	0xbd00f479	-0.031483147
27	0x3d608dc6	0.054822706
28	0xbd2c5964	-0.042077437
29	0x3cc898b8	0.024486884
30	0x3c17cc5b	0.009265031
31	0x3cb897df	0.022533355
32	0x3d146dc3	0.03623749
33	0x398acb20	0.0002647275
34	0x3d6fdc9a	0.05855999
35	0xbc932450	-0.017961651
36	0x3d368641	0.04456163
37	0x3d06adf6	0.032880746
38	0xbc5cba6b	-0.01347218
39	0x3c64a6f9	0.013955825
40	0xbcc675a3	-0.024226015
41	0x3c8c297b	0.017109623
42	0x3cc27ce0	0.023741186
43	0xbcdcbf8c	-0.026946805
44	0x3d10951a	0.035298444
45	0x3779f84c	1.4899368e-05
46	0xb7bc0163	-2.2411992e-05
47	0x37498e84	1.2013716e-05
48	0xb7b67a57	-2.175306e-05
49	0xb7c3bc0e	-2.3333381e-05
50	0xb81f79ff	-3.802217e-05
51	0xb8925033	-6.976761e-05
52	0xb8b2f5b7	-8.5334694e-05
53	0xb8a2cb68	-7.762649e-05
54	0x3c6a8080	0.014312863
55	0x39c7489e	0.00038010342
56	0x3ce56337	0.02800141
57	0x3bc9d2ac	0.0061591472
58	0xbb62ba4b	-0.0034595903
59	0x3c8f5d6b	0.0175006
60	0x3c56cc7d	0.013110277
61	0x3a3fa538	0.0007310691
62	0x3c7f3689	0.015576967
63	0x3c1f5418	0.009724639
64	0xbc82edcc	-0.015982531
65	0x3b82e5c5	0.003994676
66	0x3cd6d72d	0.02622565
67	0x3c1f7613	0.009732741
68	0xb90adc5d	-0.00013242797
69	0xbb167c0d	-0.0022962124
70	0x3c8c186d	0.01710149
71	0xbc96eb7c	-0.018422835
72	0x3d577e50	0.052610695
73	0x3d73b7b7	0.059501376
74	0xbb7e3fae	-0.003879528
75	0xbd1b381f	-0.037895318
76	0x3d006512	0.03134639
77	0x3b99271f	0.004673853
78	0xbc13face	-0.0090319645
79	0xbbd047f8	-0.0063562356
80	0x3be55049	0.006998096
81	0xbd13d9ea	-0.03609649
82	0x3ceb16d6	0.028697412
83	0x3d70de16	0.058805548
84	0xbccacf32	-0.024757002
85	0x3d30f8d5	0.043206055
86	0x3d70ebe9	0.05881873
87	0x3c315e2e	0.010825677
88	0x3d6b3823	0.057426583
89	0x3cc1ba59	0.023648428
90	0x3c2e4182	0.0106357355
91	0xbc6e7e72	-0.014556514
92	0xbbd2e33d	-0.0064357803
93	0xbcaa5432	-0.0207921
94	0x3c931c78	0.01795791
95	0x3c7e3b18	0.015517019
96	0x3ab94733	0.0014135599
97	0xbc17de5e	-0.009269325
98	0x3cc6c90d	0.02426579
99	0x3c709ecd	0.014686299
100	0xbca3e112	-0.020004783
101	0xbb74f5a5	-0.003737786
102	0x3d134365	0.035952944
103	0xbce960e3	-0.028488582
104	0x3cb35552	0.02189127
105	0x3d02d31a	0.031939603
106	0xbd3a4230	-0.045473278
107	0xbbe7d2cb	-0.007074689
108	0xbd0d8231	-0.03454799
109	0xbcc3b20e	-0.023888614
110	0xbc7c7e4b	-0.01541097
111	0x3d169aeb	0.036768835
112	0x3cd21290	0.025643617
113	0x3ce170af	0.027519552
114	0x3c595ab9	0.013266259
115	0xbc63323f	-0.01386696
116	0x3b78d86f	0.0037970801
117	0x3ccf96ba	0.025340427
118	0x3c8381af	0.016053049
119	0x3c83061b	0.015994122
120	0xba1abcdd	-0.00059027766
121	0x3c344ddb	0.01100489
122	0xbad972c6	-0.0016589991
123	0x3cbffa54	0.023434795
124	0x3cdf12fd	0.027230734
125	0x3cc82491	0.024431499
126	0xbd212b2e	-0.03934782
127	0x3c942840	0.018085599
128	0xbccb23b8	-0.024797305
129	0xbccbfaa0	-0.02489978
130	0xba8924dd	-0.0010463257
131	0x3d11bcb8	0.035580367
132	0x3d08b352	0.03337414
133	0xbcf606a2	-0.03003246
134	0x3d22006b	0.03955118
135	0x3cff6a4f	0.031178622
136	0xbd04f440	-0.032459497
137	0x3caa93f9	0.020822512
138	0x3cb865f3	0.02250955
139	0xbc630825	-0.013856922
140	0xbb9527b2	-0.004551851
141	0xbd165ac9	-0.036707673
142	0x3c1f4a75	0.009722342
143	0x3d0e0c69	0.034679804
144	0x3a9003df	0.0010987482
145	0x3b6b0a91	0.0035864452
146	0x3b25a38e	0.0025274488
147	0x3c23b3f9	0.009991639
148	0x3c906120	0.017624438
149	0x3a3ead33	0.00072737335
150	0x3c71d37b	0.0147598935
151	0xbbda1cef	-0.006656281
152	0x3c077217	0.008266947
153	0x3d4081ff	0.046998974
154	0x3c167f82	0.009185674
155	0xbccdd632	-0.02512655
156	0x3cdc5105	0.026894102
157	0x3d09cea4	0.033644333
158	0x3d281ef2	0.041045137
159	0xbbf0aa88	-0.0073445477
160	0x3cd52191	0.026016982
161	0x3bee820d	0.007278687
162	0xb69c1427	-4.6515083e-06
163	0xb6e6cb5f	-6.8782097e-06
164	0xb7abfffe	-2.0503994e-05
165	0x362a44fa	2.5372124e-06
166	0x371dc08d	9.402761e-06
167	0x3714823e	8.851812e-06
168	0x366944a4	3.475966e-06
169	0xb5a6afec	-1.2419164e-06
170	0x373303bf	1.0670104e-05
171	0x3c7848c2	0.015154066
172	0x3b83337f	0.0040039415
173	0x3b589ecc	0.0033053635
174	0x3bf3bbfa	0.00743818
175	0xbc91b8e1	-0.017788352
176	0xbac39981	-0.0014923067
177	0xba870dce	-0.0010303797
178	0xbc0082cc	-0.007843684
179	0xbbeecbbb	-0.00728747
180	0x3d3c9880	0.046043873
181	0x3d387f5b	0.04504333
182	0xbc283d79	-0.0102685625
183	0x3cb4cbcd	0.022069836
184	0xbcac6c1d	-0.021047646
185	0xbcd6533b	-0.026162734
186	0xbbdb3889	-0.006690089
187	0xbce2e4bc	-0.02769696
188	0xbbc66f63	-0.006055759
189	0x3ab123a6	0.0013514652
190	0xb91bec26	-0.00014869924
191	0xba3ff409	-0.0007322436
192	0x3b0bf94b	0.0021358307
193	0xba0b3acf	-0.00053111924
194	0xb936cde2	-0.0001743357
195	0xbaf525c3	-0.001870327
196	0x3a1c7cd2	0.00059695274
197	0x37a1bf74	1.9281848e-05
198	0x3cb3caa6	0.021947216
199	0x3c96d225	0.018410752
200	0x3d0cc109	0.03436378
201	0x39ffe2c6	0.0004880635
202	0x3c66efdc	0.014095273
203	0x3c4bc18c	0.012436282
204	0x3ce790e6	0.028267335
205	0x3cadf97a	0.021237124
206	0xbb366c69	-0.0027835614
207	0x3c0b4b5b	0.008501853
208	0x3cc6020d	0.0241709
209	0xbc189516	-0.009312889
210	0xbbdcd4f7	-0.0067392546
211	0x3c6fe20b	0.014641295
212	0x3cc10dcf	0.023566155
213	0x3c8ac72b	0.016940674
214	0x3c0240cf	0.007950022
215	0x3b54038c	0.0032350747
216	0x3a8bde43	0.0010671098
217	0x3a2e914e	0.00066592253
218	0x3a194e42	0.0005848148
219	0x3acfd133	0.0015855193
220	0x39f1f5c3	0.0004615021
221	0x3a15ad89	0.00057097577
222	0x39ee81e7	0.00045491682
223	0x39c7b883	0.0003809371
224	0x3a5277a6	0.0008028693
225	0xbc4b25ab	-0.012399117
226	0x3beb3568	0.0071779974
227	0x3bd2e5ce	0.0064360863
228	0x3c3bf067	0.011470891
229	0xbbac0457	-0.005249541
230	0xbb71344f	-0.003680486
231	0xba12bc42	-0.00055975106
232	0x3bbae647	0.0057037207
233	0xbc26dd59	-0.010184609
234	0xbc062a5c	-0.00818881
235	0x3d3e223f	0.04641938
236	0x3cb873b6	0.022516113
237	0xbca24899	-0.019810008
238	0xbd11c217	-0.03558549
239	0x3ceacc28	0.028661802
240	0x3d2989e1	0.041391257
241	0xbc868896	-0.016422551
242	0xbc528745	-0.012849634
243	0x3d539f90	0.051665843
244	0x3d49a566	0.049230002
245	0x3d730242	0.059328325
246	0xbc2ed256	-0.010670265
247	0x3d0748a3	0.033028256
248	0x3d0b9593	0.034078192
249	0xbc82583c	-0.015911214
250	0xbc9afdc2	-0.01891983
251	0x3c6a8530	0.014313981
252	0x3d12fb2a	0.03588406
253	0xbce22567	-0.027605725
254	0xbd1e050e	-0.03857904
255	0xbc03f48d	-0.008053911

features.6.bias f4 [64]
0	0x3b395174	0.002827731
1	0x3d5a6537	0.053319182
2	0xb2f2ef33	-2.8281283e-08
3	0x3bae667a	0.0053222748
4	0x3d9d444b	0.076790415
5	0xb9ea9170	-0.00044740317
6	0xbd052c17	-0.03251275
7	0xb59e998a	-1.1816603e-06
8	0xbca90cfa	-0.02063607
9	0xbd545096	-0.051834665
10	0x3c4650ad	0.012104196
11	0x3d92d196	0.071688816
12	0x3c11d3f5	0.008900632
13	0xbb8fd792	-0.0043897117
14	0x3ace4566	0.0015737235
15	0xba8d1606	-0.001076401
16	0x3bdac719	0.0066765663
17	0x3cff793d	0.03118574
18	0x3d5a0527	0.05322757
19	0x3d0ab314	0.03386219
20	0x3c198b40	0.009371579
21	0xb9dde668	-0.0004232407
22	0x3d7ee104	0.06222631
23	0x3d9252ff	0.071447365
24	0xbc2f1ff0	-0.010688767
25	0x3d0c9998	0.034326166
26	0x3d31c4ec	0.04340069
27	0xbb69acb8	-0.0035655927
28	0xbd37c8b8	-0.044869155
29	0xbc4c47aa	-0.012468258
30	0x3c582f22	0.013194831
31	0x3d004e6a	0.03132478
32	0x3d65970e	0.05605226
33	0x3d52d2a9	0.051470432
34	0x3d14712f	0.036240753
35	0x3cc9e295	0.024644176
36	0x3d30d710	0.04317385
37	0x3bbe46d5	0.0058067837
38	0xbba090f4	-0.0049000923
39	0xba9778ec	-0.0011556423
40	0xb413e0b5	-1.377219e-07
41	0x3c49d3c8	0.012318559
42	0x3cfba086	0.030716192
43	0xbc92b412	-0.01790813
44	0x3c432c4e	0.0119124185
45	0xb1a057e5	-4.6666053e-09
46	0x3c5b73c3	0.013394299
47	0x345c8d90	2.0540597e-07
48	0x3d808bd5	0.06276671
49	0xbaefdad3	-0.0018299468
50	0x3d97bb30	0.0740875
51	0xb9c24add	-0.0003705834
52	0xbcdd9679	-0.02704929
53	0xbcc02c16	-0.023458522
54	0xb365c31d	-5.3495672e-08
55	0xbd008244	-0.03137423
56	0xbc9e8d0a	-0.019354362
57	0xbc911c5e	-0.017713722
58	0x3cf6e91b	0.03014045
59	0x3d285cd4	0.041104153
60	0x3d667d74	0.056271985
61	0xbb341221	-0.0027476626
62	0xbcbb9aac	-0.022900902
63	0x3d2c86ae	0.042120628

classifier.1.weight f4 [128, 64]
0	0xb8f06748	-0.000114633294
1	0xb963412b	-0.00021672684
2	0xa553edd9	-1.8381919e-16
3	0x305283c5	7.658481e-10
4	0xb98cfba6	-0.00026890374
5	0xa941455a	-4.291476e-14
6	0xb242b412	-1.13332295e-08
7	0x9c6cea20	-7.838845e-22
8	0xb7e99254	-2.7843904e-05
9	0xa787e317	-3.771624e-15
10	0xb31f42f4	-3.7080966e-08
11	0xb7e3a32b	-2.713649e-05
12	0xb92a2c5e	-0.00016228991
13	0x2eaa8c84	7.7556656e-11
14	0xae45be2f	-4.496153e-11
15	0x26334aa9	6.2204284e-16
16	0xb2deacbb	-2.592275e-08
17	0xb25a500b	-1.270747e-08
18	0xb93ba10c	-0.00017893704
19	0x370355d2	7.82819e-06
20	0xb06b63ef	-8.5634516e-10
21	0xa1f00381	-1.626396e-18
22	0xb903b86d	-0.00012561838
23	0xb99e29c3	-0.00030167223
24	0xb91463e9	-0.000141516
25	0x320f1b06	8.32984e-09
26	0xb944a5d6	-0.00018753795
27	0xb900e6e1	-0.0001229304
28	0xb307e85e	-3.1643474e-08
29	0xb8e7d0fc	-0.00011053865
30	0xb943f0be	-0.00018686333
31	0xb90b18f7	-0.00013265373
32	0xb966c2ae	-0.00022007033
33	0xb9679520	-0.0002208543
34	0xb81d5933	-3.751479e-05
35	0xb955dd53	-0.00020395713
36	0xb9776506	-0.0002359339
37	0xb8c9cbfc	-9.622422e-05
38	0xb2540173	-1.2340354e-08
39	0xb92de27b	-0.00016582936
40	0x222c3b1a	2.3341635e-18
41	0xb10365b0	-1.9120812e-09
42	0xb5e45ef8	-1.7014963e-06
43	0xb90af99f	-0.00013253697
44	0xb8c53f0f	-9.4054376e-05
45	0x227645b3	3.3376115e-18
46	0xaf07299f	-1.2292965e-10
47	0x29c4de54	8.742716e-14
48	0x342b11bc	1.5932068e-07
49	0xb06c5d47	-8.5988855e-10
50	0xb9389017	-0.00017601285
51	0xa3baef64	-2.0267546e-17
52	0xb022ad42	-5.918147e-10
53	0xb67640e9	-3.669464e-06
54	0x21495ccb	6.822426e-19
55	0xb959cfa6	-0.00020772088
56	0x26594365	7.5378335e-16
57	0xb25ffb4b	-1.3037446e-08
58	0xa1b5ef7d	-1.2328429e-18
59	0xb8c33968	-9.309017e-05
60	0xb93dd932	-0.00018105356
61	0x28bb7140	2.0810285e-14
62	0xb90fdbfa	-0.0001371949
63	0x20203e3a	1.3573116e-19
64	0xb7f5c08b	-2.9295936e-05
65	0xb84aaa23	-4.8319005e-05
66	0x223be430	2.5464027e-18
67	0xb109c34e	-2.0047142e-09
68	0xb856543b	-5.110002e-05
69	0xa27b57b0	-3.4063265e-18
70	0x337738bf	5.756078e-08
71	0xab0237af	-4.6262554e-13
72	0xb6b331e1	-5.3404224e-06
73	0xa168c85f	-7.8869846e-19
74	0x33898582	6.4038446e-08
75	0xb6a4fe25	-4.917167e-06
76	0xb8963d2a	-7.16395e-05
77	0xa6a1ac47	-1.1218315e-15
78	0xab3025f8	-6.2580453e-13
79	0xafc2115d	-3.5300732e-10
80	0xb086dde9	-9.812854e-10
81	0x303fe6a8	6.981318e-10
82	0xb7916b2b	-1.7335251e-05
83	0x367a0bfc	3.7259879e-06
84	0x312ef895	2.5461635e-09
85	0xa69cc7e1	-1.0878852e-15
86	0xb80381b8	-3.1353644e-05
87	0x34840ca0	2.4596102e-07
88	0xb72d3dac	-1.0325963e-05
89	0xae7a94a9	-5.6975456e-11
90	0xb806f003	-3.2171618e-05
91	0xb7e40101	-2.7180185e-05
92	0xb27f6e92	-1.4868094e-08
93	0xb7d3756d	-2.520784e-05
94	0xb7fa7ebf	-2.9861343e-05
95	0xb7870903	-1.609745e-05
96	0xb82a3322	-4.057878e-05
97	0xb7ebf802	-2.812967e-05
98	0xb83c0559	-4.4827673e-05
99	0x3839f15e	4.4332228e-05
100	0xb86d0b09	-5.651548e-05
101	0xb7c16458	-2.3054119e-05
102	0x2367bb89	1.2562247e-17
103	0xb7d71bd3	-2.5642954e-05
104	0xa2bdb3ea	-5.1419044e-18
105	0x2e83d2c6	5.994631e-11
106	0xb6f29073	-7.228978e-06
107	0xb7b869c4	-2.198376e-05
108	0xb73135d2	-1.0562553e-05
109	0x22404ec0	2.6062542e-18
110	0x2c876923	3.8486033e-12
111	0x25b3ac74	3.116841e-16
112	0xb2a020a5	-1.8641297e-08
113	0xaca9d204	-4.8265853e-12
114	0x39084f25	0.00012999454
115	0x283cc61f	1.0479057e-14
116	0xaff0856e	-4.3750553e-10
117	0xb58aa982	-1.0331134e-06
118	0x20bd2301	3.204101e-19
119	0xb82cf8c6	-4.1239684e-05
120	0xb110ce3e	-2.1071993e-09
121	0xb1c27ca8	-5.660315e-09
122	0x2c7bbfa2	3.5775623e-12
123	0xb80ef083	-3.4079432e-05
124	0x38866f0c	6.410302e-05
125	0x1fe0860a	9.508944e-20
126	0xb82118c5	-3.840846e-05
127	0xa0746800	-2.0702015e-19
128	0xbc6e1915	-0.014532347
129	0xbc81f7ea	-0.015865285
130	0xa548b6b7	-1.7409141e-16
131	0xb088d6d8	-9.956365e-10
132	0xbc8938a2	-0.016750637
133	0x2c28a59b	2.3966165e-12
134	0x32801628	1.4911237e-08
135	0xadb82147	-2.0933156e-11
136	0xb8c18be7	-9.229016e-05
137	0x3a518994	0.0007993218
138	0xb53f5769	-7.1280243e-07
139	0xbc083ad0	-0.008314803
140	0xbc3f7566	-0.011685705
141	0x30069202	4.8956406e-10
142	0xaf978da9	-2.7567396e-10
143	0x3315ac20	3.4848313e-08
144	0x337a76af	5.8315603e-08
145	0xb3bc42c1	-8.766575e-08
146	0xbc52f167	-0.012874938
147	0x34d4b2c4	3.9618146e-07
148	0x3391085c	6.753609e-08
149	0x2e024dd8	2.9627717e-11
150	0xbc5ee529	-0.013604441
151	0xbc5158a0	-0.0127774775
152	0xbc5a6b81	-0.013331295
153	0x337a53bf	5.8283828e-08
154	0xbc015166	-0.007892942
155	0xbc313f6b	-0.010818343
156	0xb4ac54a5	-3.2099084e-07
157	0xbc04c1ad	-0.0081028165
158	0xbc78601b	-0.015159632
159	0xbbfe44fb	-0.007759688
160	0xbc8c951b	-0.017160943
161	0xbc66a1ed	-0.014076692
162	0xbb994b29	-0.0046781492
163	0xbc122036	-0.0089188125
164	0xbc48f701	-0.012265922
165	0xbc3a6055	-0.011375506
166	0x30d87388	1.5748904e-09
167	0xbc3a3b1e	-0.011366634
168	0xa289b901	-3.7329805e-18
169	0xb1e9ecd7	-6.808118e-09
170	0xbba4f5c6	-0.0050341813
171	0xbc177895	-0.009245058
172	0xbc07c1e9	-0.008285978
173	0xa63f925b	-6.6464785e-16
174	0x333d9cc6	4.4147576e-08
175	0x21988aeb	1.0336692e-18
176	0x3787820d	1.6153814e-05
177	0xb24606ea	-1.1526689e-08
178	0xbc69c9b3	-0.01426928
179	0xab3c370a	-6.68674e-13
180	0xb5052a05	-4.960751e-07
181	0x38f44018	0.00011646765
182	0xa904579e	-2.9385884e-14
183	0xbc5228f8	-0.0128271505
184	0x31b1130b	5.153543e-09
185	0xb45f62af	-2.0804394e-07
186	0xb6f8b6fd	-7.4122786e-06
187	0xbc2b44c3	-0.010453406
188	0xbc1f9eea	-0.009742478
189	0x2f908c0f	2.6292965e-10
190	0xbc5b5207	-0.013386256
191	0xb8214eb3	-3.8458686e-05
192	0x3a7bc22a	0.0009603823
193	0x3dddfc1b	0.10839101
194	0xb6007404	-1.9141016e-06
195	0xb5afece6	-1.3107463e-06
196	0xbcb3e26c	-0.021958552
197	0x3c4f34ee	0.012646897
198	0xb9043da8	-0.0001261147
199	0x34f5c710	4.5779643e-07
200	0x3c9289b9	0.017887937
201	0x3d0c4907	0.03424933
202	0x392609fb	0.00015834712
203	0xbdcf51fa	-0.10123058
204	0x3d86d03d	0.06582687
205	0xbb379404	-0.0028011808
206	0xbc0c75f6	-0.008573046
207	0xbc41f02d	-0.0118370475
208	0xb7ad015b	-2.0623838e-05
209	0xba18c6a5	-0.000582794
210	0xbd2efea4	-0.042723313
211	0xbdb1d374	-0.086829096
212	0xb98a0281	-0.00026323277
213	0x32eb01a3	2.7358345e-08
214	0xbd920882	-0.07130529
215	0xbd908dcd	-0.07058296
216	0x3da9a764	0.0828388
217	0xbd87fa9f	-0.06639599
218	0x3cdf1455	0.027231375
219	0xbcc40c78	-0.023931727
220	0x3a0fcd8a	0.0005485645
221	0x3c8df0ee	0.017326798
222	0x3d3cae4f	0.04606467
223	0x3daf4200	0.085575104
224	0x3dd316ba	0.10307069
225	0x3c919185	0.017769584
226	0x3d053a75	0.032526452
227	0x3dad23b8	0.084540784
228	0x3cf958fb	0.030437937
229	0xbd0a8f27	-0.033827927
230	0xbc56eb40	-0.013117611
231	0x3caa311a	0.020775367
232	0x24925070	6.345367e-17
233	0x38d79adf	0.00010280846
234	0x3daa81cc	0.08325538
235	0xbd9bd99d	-0.07609866
236	0x3d159d27	0.036526825
237	0x306aad90	8.537535e-10
238	0xb6719be1	-3.6002532e-06
239	0xb575bb6c	-9.1542347e-07
240	0xbcbe5edc	-0.023238592
241	0x37d04a9b	2.4830273e-05
242	0x3c33e333	0.0109794615
243	0x356f30a6	8.910523e-07
244	0x39702bf7	0.00022904562
245	0x3bdc49a3	0.0067226454
246	0x23263dd4	9.011971e-18
247	0x3c939a8f	0.018018035
248	0xbcc78602	-0.024355892
249	0x380e878e	3.3981683e-05
250	0xba3b6220	-0.00071481057
251	0xbd8b7986	-0.06810288
252	0x3de54029	0.11193878
253	0xb71e114d	-9.421562e-06
254	0x3dea2fd0	0.11434901
255	0x3da85848	0.08219963

classifier.1.bias f4 [128]
0	0xb892e66d	-7.004743e-05
1	0xb86d23b1	-5.6538443e-05
2	0x3c1d9cbe	0.00961989
3	0x3dbe7e2f	0.09301411
4	0xbd43b421	-0.047779206
5	0xbb9534d1	-0.0045534153
6	0x3ddc1a7c	0.10747239
7	0xbcc6032c	-0.024171434
8	0x3d94113b	0.07229849
9	0xbaa88893	-0.0012858085
10	0xbd17b271	-0.03703541
11	0x3d580cfc	0.052746758
12	0x39a0a58d	0.00030640923
13	0x3de3b62d	0.11118732
14	0xbcd152e1	-0.025552215
15	0xbc996caa	-0.018728573
16	0xbcd6c825	-0.026218483
17	0xbc716871	-0.014734373
18	0xbccffd78	-0.025389418
19	0x3d5fd7cb	0.054649156
20	0x3d841f51	0.06451286
21	0x3c12c940	0.008959115
22	0x36802e66	3.8200988e-06
23	0x3d7e225d	0.06204449
24	0x3da0ec0b	0.078575216
25	0x3b3e14e6	0.0029004156
26	0x3e1311cc	0.14362258
27	0x3d0b28c7	0.033974435
28	0x3db083e0	0.08618903
29	0x3d72358e	0.059133105
30	0xbd5f4ab3	-0.054514598
31	0x3d528a49	0.05140141
32	0x3bb90678	0.005646523
33	0xbcdeead7	-0.02721159
34	0x3d61f96c	0.055169508
35	0xbcfee4b3	-0.031114912
36	0x33b853b2	8.583392e-08
37	0xbb9cf407	-0.0047898325
38	0x3db24139	0.087038465
39	0xb49d9b62	-2.9356585e-07
40	0x3dee4e61	0.11636043
41	0x3d26c425	0.0407144
42	0xb6467da6	-2.9577436e-06
43	0x3d307c33	0.043087196
44	0xb75bda60	-1.3104262e-05
45	0xbaaea6c6	-0.0013324849
46	0xbd15393a	-0.03643153
47	0x3c50e31a	0.012749458
48	0xbc78932d	-0.015171808
49	0xbcd6a857	-0.026203318
50	0x3d96b05b	0.07357856
51	0x3ba58ac6	0.0050519435
52	0x3ca7138d	0.020395065
53	0x3d56119d	0.05226289
54	0xbc52650f	-0.012841477
55	0xbc22a980	-0.009928107
56	0x3d873791	0.06602395
57	0x3ab24b4e	0.0013602765
58	0xb32e981c	-4.0650875e-08
59	0x3cfe3b93	0.031034267
60	0x3d37e613	0.04489715
61	0x3680c9ed	3.8382045e-06
62	0x3df34176	0.1187772
63	0x3d8f9c3b	0.070122205
64	0x3d500ddd	0.05079447
65	0x3da492ce	0.08035813
66	0xbd8a6a15	-0.06758515
67	0x3d88c5c6	0.06678347
68	0x3aaa7124	0.0013003689
69	0x3c6b898b	0.0143760545
70	0x2cbf66e0	5.439968e-12
71	0x3ca6c23c	0.02035629
72	0x3d692207	0.056917217
73	0xbad42360	-0.0016184859
74	0xbbd145bb	-0.0063864863
75	0x3d142488	0.03616765
76	0xb45ea344	-2.0734757e-07
77	0x3ddbf253	0.10739579
78	0x3df56d99	0.11983795
79	0x3dd154c9	0.102212496
80	0x3cfa10eb	0.030525645
81	0x3dfe1302	0.12405969
82	0x3bc12885	0.005894723
83	0xb8831f2c	-6.252373e-05
84	0x3d9b9d0b	0.07598313
85	0x3dd43103	0.10360911
86	0xbac2a8b4	-0.0014851303
87	0x3d1daa1c	0.038492307
88	0xb4fea988	-4.7434537e-07
89	0x3d646c09	0.055767093
90	0x3d42c413	0.047550272
91	0xbcb41283	-0.021981483
92	0xbbf035c0	-0.0073306262
93	0x3c3b0b1a	0.011416221
94	0x3d134780	0.03595686
95	0xbca156ef	-0.019694773
96	0xbb391428	-0.0028240774
97	0xba96eda3	-0.0011514913
98	0x3d2113c4	0.03932549
99	0x3c2e22b1	0.010628388
100	0x3daf25fb	0.08552166
101	0x3d323fe8	0.043517977
102	0xbdc83d8d	-0.09777365
103	0x3c926de0	0.017874658
104	0xbb13f2ee	-0.0022575217
105	0xb6158235	-2.227852e-06
106	0x3c17ccb9	0.009265118
107	0xb884df0f	-6.3357984e-05
108	0x3d806fcc	0.062713236
109	0x3da7f444	0.08200887
110	0xbd3127da	-0.043250896
111	0xbd9d27f3	-0.07673635
112	0x3d5819f2	0.05275912
113	0xbd696ec9	-0.05699042
114	0x3c2e04dd	0.010621277
115	0x3c882494	0.016619004
116	0x3d83308c	0.06405744
117	0xb79329a9	-1.7543165e-05
118	0xbdbd9830	-0.09257543
119	0xae980565	-6.913118e-11
120	0x3af16863	0.001841795
121	0xa2937832	-3.997169e-18
122	0x3d6ad22d	0.057329345
123	0x3c7bc5f8	0.015367024
124	0xb44bfbf4	-1.8997508e-07
125	0x3c0f23ff	0.0087366095
126	0x3db4c64b	0.08826884
127	0x3cbc2948	0.022968903

classifier.4.weight f4 [18, 128]
0	0xb8c898c4	-9.565198e-05
1	0x380022a5	3.0549843e-05
2	0x39cf664f	0.00039558343
3	0xbda1f1af	-0.079074256
4	0xbcb03fbd	-0.021514768
5	0x3cb778d2	0.022396479
6	0xbc9f2dad	-0.01943096
7	0xbc478e4f	-0.012179925
8	0xbd3e1a41	-0.046411756
9	0x3bf594ee	0.0074945604
10	0xbad9c901	-0.001661569
11	0x3b8459ac	0.00403901
12	0x3ad1c578	0.0016004285
13	0xbd584848	-0.052803308
14	0xbd90f166	-0.07077293
15	0x39dfc6dd	0.0004268204
16	0xbda6ab89	-0.081381865
17	0x3c91b556	0.017786663
18	0xbab12600	-0.0013515353
19	0xbdbf167a	-0.09330459
20	0x3c8694ee	0.016428437
21	0xbcb6def0	-0.022323102
22	0x392141fc	0.00015378738
23	0x3b315a0f	0.0027061736
24	0x3c27807c	0.010223504
25	0xbcfaa36c	-0.030595504
26	0xbb711c73	-0.0036790639
27	0x3b42afcb	0.0029706832
28	0xbb1803a1	-0.0023195522
29	0xbd9fff27	-0.07812338
30	0x3d559378	0.05214259
31	0xbd144038	-0.036194056
32	0xbc5baf83	-0.0134085445
33	0xb9afc2cc	-0.00033523736
34	0xbd6db22b	-0.058031242
35	0xbd0f65e8	-0.035009295
36	0x3377d0ac	5.7698955e-08
37	0x3c287960	0.010282844
38	0x3d069116	0.03285321
39	0x373f9cd4	1.1421002e-05
40	0xbd846907	-0.06465345
41	0xbc7b4787	-0.015336878
42	0xb9f508ed	-0.00046736692
43	0x3aac5f31	0.0013150928
44	0xb6e78d2e	-6.900772e-06
45	0x3b9fbeef	0.004875056
46	0xbc69771e	-0.014249591
47	0x3c849245	0.016183028
48	0x3c924f33	0.01786003
49	0x39e072f3	0.00042810253
50	0xbd9e9930	-0.07744062
51	0xbd809418	-0.06278247
52	0xbb3fef5d	-0.0029286959
53	0xbc2effa7	-0.010681069
54	0xbdcc1338	-0.09964603
55	0xbc2e6e10	-0.010646358
56	0x3c8511d5	0.016243855
57	0x3b62be7a	0.0034598396
58	0x344e16d2	1.9193547e-07
59	0x3be168c2	0.006878943
60	0x3d4efed0	0.050535977
61	0x355aebd6	8.1554515e-07
62	0xbdb2e9eb	-0.087360226
63	0xbc28aa0b	-0.010294448
64	0xbc940d79	-0.01807283
65	0xbd844f1f	-0.06460404
66	0xbd5fd0da	-0.054642536
67	0x3cabed51	0.020987185
68	0x3ba02c20	0.0048880726
69	0xbda303e1	-0.07959724
70	0x2e8b3bff	6.3316456e-11
71	0xbd894eba	-0.06704469
72	0xbcff26d7	-0.03114645
73	0xbd8ca0de	-0.068666205
74	0xbb17a317	-0.002313798
75	0xbd3ad515	-0.045613367
76	0x33a5bb19	7.717444e-08
77	0x3c167158	0.009182297
78	0x3af7fb36	0.0018919471
79	0xbda21041	-0.079132564
80	0xbbf750f5	-0.0075474926
81	0xbd916c67	-0.07100754
82	0xbca580fc	-0.020203106
83	0xbc26b3c8	-0.010174699
84	0xbdbcb29f	-0.09213757
85	0xbd956413	-0.07294478
86	0x3c7f8b8d	0.015597236
87	0xbc5b8f61	-0.013400883
88	0xb32a7ec0	-3.9696488e-08
89	0xbceda322	-0.029008452
90	0xbbb384dd	-0.005478485
91	0xbbffe179	-0.007808861
92	0x38a0abab	7.66137e-05
93	0xbb38e6d7	-0.0028213763
94	0x3d3b8836	0.045784198
95	0xbbb809b1	-0.0056163897
96	0x394eb83b	0.00019714322
97	0xbab99a6a	-0.0014160399
98	0xbd15f947	-0.036614683
99	0xbb292878	-0.0025811475
100	0x3cdf6c75	0.027273396
101	0xbd984819	-0.074356265
102	0x3d012716	0.031531416
103	0xbd99554a	-0.07486971
104	0x3c9faf76	0.019492846
105	0x38f1b23f	0.000115249764
106	0x3c12187d	0.008916971
107	0xb6bbccbc	-5.5968685e-06
108	0x3ce2a89c	0.02766829
109	0xbcbe3e0c	-0.023222946
110	0x37132318	8.770054e-06
111	0xbdb0c130	-0.086305976
112	0x3b3904d9	0.002823165
113	0x3d1885a9	0.037236843
114	0xbd252522	-0.040318616
115	0x3ca96568	0.020678237
116	0x3aaaa00b	0.0013017667
117	0x3727fbda	1.0012614e-05
118	0xbb8c27c5	-0.004277202
119	0xad900b88	-1.6376026e-11
120	0x3c2ced7c	0.010554668
121	0xa088c63f	-2.3170484e-19
122	0xbcc22f9c	-0.023704343
123	0xbcdaba35	-0.026700119
124	0x399db041	0.00030076693
125	0xbab87c92	-0.0014075211
126	0xbd6fb9c5	-0.058526773
127	0xbdc418ac	-0.09575018
128	0x395a3de4	0.00020813156
129	0xb8663e47	-5.4894273e-05
130	0x3c71782e	0.014738126
131	0xbccdb138	-0.025108919
132	0xbaafd324	-0.0013414365
133	0x3ca6cdf6	0.020361882
134	0xbd5488cf	-0.051888283
135	0xbb25eac2	-0.0025316929
136	0xbd9a2443	-0.075264476
137	0xbbd47657	-0.006483834
138	0x3bff90c5	0.0077992403
139	0x3c2a54e9	0.010396221
140	0x3ac724f1	0.0015193505
141	0xbcb46de3	-0.022025054
142	0x3cb5ed9a	0.022208024
143	0xbb84c20f	-0.004051454
144	0xbd9ee5f6	-0.07758705
145	0x3ae637e9	0.001756427
146	0x3109da5c	2.0060247e-09
147	0x3d23eb95	0.04001959
148	0x3cea5e3f	0.028609393
149	0xbb8bf148	-0.0042707063
150	0x36ae3190	5.191374e-06
151	0xbc3fbc5a	-0.011702621
152	0x3cb755a7	0.02237971
153	0x3c31fa98	0.010862969
154	0xbc8ed67b	-0.017436257
155	0xbb902b5a	-0.004399699
156	0x3bc40abc	0.005982725
157	0xbd98cb0c	-0.07460603
158	0xbc8daa3e	-0.017293092
159	0xbdcaa0c5	-0.098939456
160	0xbcf42386	-0.029802095
161	0x39daa086	0.000416998
162	0x3b8012a7	0.0039084735
163	0xbd2b87cc	-0.041877553
164	0x340bccdb	1.301991e-07
165	0xbb61f202	-0.0034476523
166	0x3cf04387	0.029329075
167	0xb6216449	-2.4049243e-06
168	0xbc38681f	-0.011255293
169	0xbdc08720	-0.09400773
170	0xbadb0d78	-0.0016712388
171	0x3c096d2f	0.008387848
172	0xba38e75a	-0.0007053517
173	0xbc8b1a56	-0.016980331
174	0x38d8f278	0.00010344846
175	0x3d3d2221	0.046175126
176	0xbc8c3f88	-0.017120138
177	0x3a477a49	0.00076094695
178	0xbdb74597	-0.0894882
179	0xbda7ef58	-0.08199948
180	0xbdac5d58	-0.084162414
181	0x3d277369	0.040881548
182	0xbcb35ddc	-0.021895342
183	0xbc81e761	-0.0158574
184	0x3d1ef603	0.038808834
185	0xbb1d8b2a	-0.0024039247
186	0xb6e66e50	-6.867376e-06
187	0xbcb4dfab	-0.02207931
188	0xbda0e4f5	-0.0785617
189	0xb48f5b6a	-2.6702338e-07
190	0xbd170acb	-0.036875527
191	0xbd4ec266	-0.05047836
192	0x3c74d266	0.014942741
193	0xbda765f0	-0.0817374
194	0xbcab8c6a	-0.020940978
195	0xbc71337f	-0.01472175
196	0x390ec040	0.00013613794
197	0x3d6b5796	0.057456575
198	0xb088035b	-9.896256e-10
199	0xbd205113	-0.03913982
200	0xbc655a65	-0.0139986025
201	0x3b0f985d	0.0021910884
202	0x3c4a4b80	0.012347102
203	0xbda1840c	-0.07886514
204	0x3362f045	5.283825e-08
205	0xbd4f8a66	-0.050669096
206	0xbd735fb1	-0.05941743
207	0xbd76a472	-0.06021542
208	0x3d2d9985	0.042382736
209	0xbdaad51e	-0.0834143
210	0xbc20612d	-0.0097887935
211	0xbb5ed01e	-0.003399856
212	0xbdb10293	-0.08643069
213	0x3b97e46b	0.004635384
214	0xbc98ae17	-0.0186377
215	0xbcea8bd2	-0.028631125
216	0xb2c41c13	-2.283017e-08
217	0xbd5ce091	-0.0539251
218	0xbd135236	-0.035967074
219	0xbb234d86	-0.0024918034
220	0xb9b9aa86	-0.00035413
221	0xbca3462b	-0.01993092
222	0xbc496111	-0.012291209
223	0x3b9fb44a	0.004873787
224	0x393fa5db	0.00018276965
225	0xbc37e1d9	-0.01122328
226	0xbd86fd35	-0.06591264
227	0xbba624cd	-0.005070305
228	0xbdb92530	-0.09040296
229	0x3c3ed6cd	0.011647892
230	0xbd4e855a	-0.050420143
231	0xbded4f25	-0.11587361
232	0xbbaa2502	-0.0051924
233	0xb5cd3841	-1.5290062e-06
234	0xbc9593f3	-0.018259024
235	0xb6553d9d	-3.1775337e-06
236	0xbd09df02	-0.033659942
237	0xbd23546b	-0.03987543
238	0x3712e3d8	8.755327e-06
239	0xbd8fb8b9	-0.07017655
240	0x3b728c41	0.0037009867
241	0xbcc309d1	-0.023808392
242	0xbd955595	-0.07291714
243	0xbd8d429f	-0.068974726
244	0x3b9ab2c8	0.0047210194
245	0x37949a5d	1.7714856e-05
246	0x3c1820c8	0.009285159
247	0x2cb98732	5.273026e-12
248	0xbb7a5f48	-0.0038203765
249	0xa099afa0	-2.6035427e-19
250	0xbdb2faa4	-0.08739212
251	0xbc45a107	-0.012062318
252	0xbaa6c893	-0.0012724571
253	0xbc0ede10	-0.008719936
254	0xbdbfc8aa	-0.093644455
255	0xbde74d27	-0.112940125

classifier.4.bias f4 [18]
0	0xbdc386ab	-0.0954717
1	0xbc8d9b8b	-0.017286083
2	0xbd5606ca	-0.05225257
3	0xbc2e40c8	-0.010635562
4	0xbd3a8df1	-0.045545522
5	0x3c380396	0.011231324
6	0xbd936328	-0.07196647
7	0xbc8d4fbe	-0.017249938
8	0xbd1f2870	-0.038856924
9	0xbdf3f31c	-0.11911604
10	0xbde008e0	-0.10939193
11	0xbd56f3e6	-0.052478693
12	0x3b24dcbb	0.002515598
13	0xbdf05d49	-0.11736543
14	0xbd74a2bf	-0.05972552
15	0xbd3438f7	-0.04399964
16	0xbd4c832d	-0.049929786
17	0xbd1e65a0	-0.038671136

exp_avg f4 [16, 3, 3, 3]
0	0x37e9f15c	2.7888156e-05
1	0x379e7ab8	1.8892213e-05
2	0x386722ad	5.5106986e-05
3	0xb5f024d6	-1.7892114e-06
4	0x3777efbd	1.4778166e-05
5	0x38be24ad	9.0667374e-05
6	0x38b40a9e	8.5850465e-05
7	0x38b2624d	8.506011e-05
8	0x38dfee3a	0.00010677842
9	0x37ce4d57	2.4593128e-05
10	0xb7cd84fd	-2.4499832e-05
11	0x37e0900c	2.6769958e-05
12	0xb7bd4015	-2.2560396e-05
13	0x34af9708	3.270618e-07
14	0x38536605	5.0401333e-05
15	0x3851d2e7	5.00259e-05
16	0x38858815	6.3672815e-05
17	0x38d761be	0.00010270205
18	0xb81c63a7	-3.7286107e-05
19	0xb86518bf	-5.46209e-05
20	0xb72892e1	-1.0047778e-05
21	0xb88d7928	-6.745971e-05
22	0xb7f4b822	-2.917281e-05
23	0x376aef59	1.4003214e-05
24	0x3752bda9	1.2561134e-05
25	0x3832c8f8	4.2625674e-05
26	0x387094b2	5.7358942e-05
27	0x3827bf1f	3.9993898e-05
28	0x37f74547	2.9476954e-05
29	0x38877b0c	6.460221e-05
30	0x380717e6	3.2208765e-05
31	0x382c3ec5	4.1066454e-05
32	0x383bd05e	4.477833e-05
33	0x384e5a0b	4.9198086e-05
34	0x38681d9d	5.534069e-05
35	0x386ec8ff	5.6930814e-05
36	0x380a1a46	3.2926233e-05
37	0x37aadda3	2.0368787e-05
38	0x38496185	4.8012957e-05
39	0x37ee5278	2.8410213e-05
40	0x37ab20cc	2.040006e-05
41	0x383cb569	4.4991644e-05
42	0x382170e9	3.8490547e-05
43	0x37a22b82	1.9332165e-05
44	0x385777f0	5.1371695e-05
45	0x38bbe55d	8.959577e-05
46	0x38b607fd	8.679924e-05
47	0x38baae61	8.901652e-05
48	0x38aed9d1	8.337538e-05
49	0x38b73109	8.7352535e-05
50	0x38f14f10	0.00011506502
51	0x38c37cea	9.321592e-05
52	0x38d72327	0.000102585465
53	0x38cbf101	9.724685e-05
54	0xba95bb80	-0.0011423677
55	0xba909ada	-0.0011032477
56	0xba96a5b9	-0.0011493481
57	0xba9791c8	-0.0011563832
58	0xba94778d	-0.0011327133
59	0xba96100e	-0.0011448876
60	0xba9513f0	-0.001137374
61	0xba954bf2	-0.0011390431
62	0xba9388af	-0.0011255945
63	0xba8c4ead	-0.00107046
64	0xba874688	-0.0010320703
65	0xba8d8693	-0.0010797553
66	0xba9174b9	-0.0011097408
67	0xba8f8306	-0.0010949082
68	0xba8fa6a8	-0.0010959702
69	0xba8b87bf	-0.0010645314
70	0xba8bd6d0	-0.0010668878
71	0xba8ba924	-0.0010655266
72	0xba7e5206	-0.00097015535
73	0xba72c4e4	-0.00092609064
74	0xba7db3b2	-0.0009677961
75	0xba80ea2f	-0.0009835417
76	0xba77a62c	-0.0009447064
77	0xba7459d8	-0.0009321249
78	0xba769921	-0.0009406973
79	0xba7124a8	-0.00091988826
80	0xba76147e	-0.0009387209
81	0xba7a0b4a	-0.00095384254
82	0xba72cbc7	-0.00092619326
83	0xba6d964c	-0.00090632285
84	0xba73ce39	-0.0009300444
85	0xba74a471	-0.0009332365
86	0xba7d0827	-0.0009652399
87	0xba64a4c0	-0.00087220594
88	0xba72e31c	-0.00092654093
89	0xba75d7c3	-0.00093781593
90	0xba693b8d	-0.00088971184
91	0xba69264c	-0.00088939513
92	0xba608b1e	-0.0008565652
93	0xba5e8228	-0.0008488023
94	0xba6f144c	-0.0009120151
95	0xba6dc047	-0.0009069484
96	0xba5c4bb6	-0.0008403616
97	0xba6b18ec	-0.0008968252
98	0xba6abc1a	-0.0008954421
99	0xba529174	-0.00080325385
100	0xba4cacb9	-0.000780772
101	0xba4745aa	-0.00076016283
102	0xba48a05a	-0.0007653289
103	0xba51b56e	-0.00079997524
104	0xba510f39	-0.00079749856
105	0xba39cc1a	-0.00070876034
106	0xba48409e	-0.0007639023
107	0xba531c72	-0.000805325
108	0x38c35318	9.313802e-05
109	0x38aacf6d	8.144868e-05
110	0x38b0c2af	8.4285966e-05
111	0x385f8223	5.3288542e-05
112	0x389eb1cc	7.567144e-05
113	0x38765675	5.873149e-05
114	0x389286dd	6.986943e-05
115	0x38831769	6.250927e-05
116	0x38b13ab0	8.450949e-05
117	0x38a85ef6	8.028552e-05
118	0x3868c29a	5.5494347e-05
119	0x38bcfee7	9.012018e-05
120	0x3842ed6d	4.6474324e-05
121	0x38960cf3	7.154969e-05
122	0x3856da1b	5.1224702e-05
123	0x3885625d	6.360256e-05
124	0x38460215	4.7208818e-05
125	0x3899d5a9	7.335406e-05
126	0x3952645f	0.00020064552
127	0x394c6486	0.00019492404
128	0x394e277d	0.00019660401
129	0x394cfd4f	0.00019549321
130	0x39591d52	0.00020705655
131	0x39383167	0.00017566011
132	0x39437685	0.00018640801
133	0x392d8793	0.00016549071
134	0x3946826b	0.00018931336
135	0x388c305c	6.684728e-05
136	0x3871ae47	5.7621186e-05
137	0x3857da91	5.146355e-05
138	0x3880e142	6.145473e-05
139	0x3847c341	4.762714e-05
140	0x383922f0	4.4139975e-05
141	0x384ac93c	4.8347967e-05
142	0x3851953d	4.9968472e-05
143	0x3809ede4	3.28849e-05
144	0x380f5e60	3.418175e-05
145	0x37c991f0	2.4029025e-05
146	0x37f4c095	2.9176745e-05
147	0x37a4656d	1.9597554e-05
148	0x382736c7	3.9866918e-05
149	0x37e39a37	2.713232e-05
150	0x38119359	3.4707922e-05
151	0x38214ce2	3.8456994e-05
152	0x3845c82d	4.715489e-05
153	0x38f474b8	0.00011656567
154	0x38dabaf2	0.00010429871
155	0x3906e2b0	0.00012863684
156	0x38f2c10f	0.00011575419
157	0x38c0b50d	9.188997e-05
158	0x390160b8	0.00012338429
159	0x3904c8a1	0.00012663241
160	0x3901c068	0.00012374076
161	0x38dd8195	0.00010562238
162	0xb8212581	-3.842032e-05
163	0xb8787b0f	-5.9242415e-05
164	0xb88f4393	-6.831358e-05
165	0xb85f613e	-5.3257907e-05
166	0xb88673c0	-6.411178e-05
167	0xb896f45c	-7.198073e-05
168	0xb8240d06	-3.9112776e-05
169	0xb874f283	-5.839999e-05
170	0xb85d688d	-5.2787876e-05
171	0xb82e2279	-4.1516938e-05
172	0xb7e7aa08	-2.7616523e-05
173	0xb8692d33	-5.5593624e-05
174	0xb7c7ccb4	-2.3817971e-05
175	0xb7bcb01b	-2.2493352e-05
176	0xb804c2c0	-3.1652628e-05
177	0xb7e12dd4	-2.684343e-05
178	0xb820104d	-3.8162154e-05
179	0xb84932cc	-4.7969443e-05
180	0xb8adc1e5	-8.2853985e-05
181	0xb8b6586f	-8.694908e-05
182	0xb8cad873	-9.6724274e-05
183	0xb895ce8d	-7.143347e-05
184	0xb8af2792	-8.352021e-05
185	0xb8dec4b8	-0.000106224266
186	0xb87c11cc	-6.0098057e-05
187	0xb881051d	-6.152152e-05
188	0xb8c26060	-9.268592e-05
189	0xbaab0cee	-0.0013050118
190	0xbaac4ae5	-0.0013144879
191	0xbaa637fa	-0.0012681477
192	0xbaaed93e	-0.001333989
193	0xbaa8f81a	-0.0012891323
194	0xba9d6be9	-0.0012010309
195	0xbaaaa676	-0.001301958
196	0xbaab3258	-0.0013061268
197	0xba9b80a3	-0.0011863898
198	0xbaa5c82d	-0.0012648158
199	0xbaa3093c	-0.0012438665
200	0xba9ccb9f	-0.0011962539
201	0xbaa4cf14	-0.0012573921
202	0xbaa3f952	-0.0012510216
203	0xba957247	-0.0011401855
204	0xbaa1f0b4	-0.001235506
205	0xbaa3c957	-0.0012495917
206	0xba93a48e	-0.0011264251
207	0xba91cc44	-0.0011123498
208	0xba8bd899	-0.001066941
209	0xba8b5507	-0.0010630199
210	0xba9380cf	-0.0011253598
211	0xba90d628	-0.0011050152
212	0xba833e48	-0.0010013068
213	0xba8dd1ff	-0.001082003
214	0xba8f85f8	-0.001094996
215	0xba805d42	-0.0009793418
216	0xba0b9822	-0.0005325099
217	0xb9f4f8ef	-0.00046724777
218	0xb9f4ef65	-0.0004671767
219	0xba085efd	-0.00052021426
220	0xba04cece	-0.00050662167
221	0xba083ede	-0.0005197356
222	0xba0b02df	-0.0005302857
223	0xba0beb7b	-0.00053375185
224	0xba035ad9	-0.0005010791
225	0xba042598	-0.00050410023
226	0xb9e6f534	-0.0004405171
227	0xb9e3a83e	-0.00043422164
228	0xba01a8e7	-0.0004946128
229	0xba007edf	-0.0004901718
230	0xba022ec9	-0.0004966078
231	0xba05d03c	-0.00051045767
232	0xb9fc0d8f	-0.00048075287
233	0xb9fdd84e	-0.0004841708
234	0xb9e857f1	-0.0004431601
235	0xb9d1e3e4	-0.00040033378
236	0xb9ce35a1	-0.00039331338
237	0xb9e889bd	-0.0004435311
238	0xb9e2a93e	-0.00043232174
239	0xb9e678d8	-0.00043959054
240	0xb9e05ffe	-0.0004279613
241	0xb9e9ea03	-0.00044615575
242	0xb9e50464	-0.00043681555
243	0x39163558	0.00014324987
244	0x39033073	0.00012511182
245	0x39080909	0.00012973337
246	0x38f5d533	0.00011722222
247	0x38b69690	8.706481e-05
248	0x387c321c	6.012815e-05
249	0x38ef97cd	0.00011424683
250	0x3830fa7c	4.219495e-05
251	0x388329b8	6.2543375e-05
252	0x38c0dda6	9.196559e-05
253	0x38c5864e	9.418708e-05
254	0x389d7230	7.5076125e-05
255	0x38a163a1	7.6956356e-05
